{"format": "graph-model", "generatedBy": "2.4.1", "convertedBy": "TensorFlow.js Converter v3.3.0", "signature": {"outputs": {"Identity:0": {"name": "Identity:0"}}}, "modelTopology": {"node": [{"name": "model/654/Mean/reduction_indices", "op": "Const", "attr": {"value": {"tensor": {"dtype": "DT_INT32", "tensorShape": {"dim": [{"size": "2"}]}}}, "dtype": {"type": "DT_INT32"}}}, {"name": "model/654_EXPAND1/ExpandDims/dim", "op": "Const", "attr": {"dtype": {"type": "DT_INT32"}, "value": {"tensor": {"dtype": "DT_INT32", "tensorShape": {}}}}}, {"name": "model/654_EXPAND2/ExpandDims/dim", "op": "Const", "attr": {"value": {"tensor": {"dtype": "DT_INT32", "tensorShape": {}}}, "dtype": {"type": "DT_INT32"}}}, {"name": "model/655/Conv2D/ReadVariableOp", "op": "Const", "attr": {"value": {"tensor": {"dtype": "DT_FLOAT", "tensorShape": {"dim": [{"size": "1"}, {"size": "1"}, {"size": "1152"}, {"size": "48"}]}}}, "dtype": {"type": "DT_FLOAT"}}}, {"name": "model/655/BiasAdd/ReadVariableOp", "op": "Const", "attr": {"dtype": {"type": "DT_FLOAT"}, "value": {"tensor": {"dtype": "DT_FLOAT", "tensorShape": {"dim": [{"size": "48"}]}}}}}, {"name": "model/658/Conv2D/ReadVariableOp", "op": "Const", "attr": {"dtype": {"type": "DT_FLOAT"}, "value": {"tensor": {"dtype": "DT_FLOAT", "tensorShape": {"dim": [{"size": "1"}, {"size": "1"}, {"size": "48"}, {"size": "1152"}]}}}}}, {"name": "model/658/BiasAdd/ReadVariableOp", "op": "Const", "attr": {"value": {"tensor": {"dtype": "DT_FLOAT", "tensorShape": {"dim": [{"size": "1152"}]}}}, "dtype": {"type": "DT_FLOAT"}}}, {"name": "model/635/Mean/reduction_indices", "op": "Const", "attr": {"value": {"tensor": {"dtype": "DT_INT32", "tensorShape": {"dim": [{"size": "2"}]}}}, "dtype": {"type": "DT_INT32"}}}, {"name": "model/635_EXPAND1/ExpandDims/dim", "op": "Const", "attr": {"value": {"tensor": {"dtype": "DT_INT32", "tensorShape": {}}}, "dtype": {"type": "DT_INT32"}}}, {"name": "model/635_EXPAND2/ExpandDims/dim", "op": "Const", "attr": {"value": {"tensor": {"dtype": "DT_INT32", "tensorShape": {}}}, "dtype": {"type": "DT_INT32"}}}, {"name": "model/636/Conv2D/ReadVariableOp", "op": "Const", "attr": {"value": {"tensor": {"dtype": "DT_FLOAT", "tensorShape": {"dim": [{"size": "1"}, {"size": "1"}, {"size": "1152"}, {"size": "48"}]}}}, "dtype": {"type": "DT_FLOAT"}}}, {"name": "model/636/BiasAdd/ReadVariableOp", "op": "Const", "attr": {"dtype": {"type": "DT_FLOAT"}, "value": {"tensor": {"dtype": "DT_FLOAT", "tensorShape": {"dim": [{"size": "48"}]}}}}}, {"name": "model/639/Conv2D/ReadVariableOp", "op": "Const", "attr": {"dtype": {"type": "DT_FLOAT"}, "value": {"tensor": {"dtype": "DT_FLOAT", "tensorShape": {"dim": [{"size": "1"}, {"size": "1"}, {"size": "48"}, {"size": "1152"}]}}}}}, {"name": "model/639/BiasAdd/ReadVariableOp", "op": "Const", "attr": {"dtype": {"type": "DT_FLOAT"}, "value": {"tensor": {"dtype": "DT_FLOAT", "tensorShape": {"dim": [{"size": "1152"}]}}}}}, {"name": "model/798/Conv2D/ReadVariableOp", "op": "Const", "attr": {"dtype": {"type": "DT_FLOAT"}, "value": {"tensor": {"dtype": "DT_FLOAT", "tensorShape": {"dim": [{"size": "1"}, {"size": "1"}, {"size": "192"}, {"size": "1152"}]}}}}}, {"name": "model/798/BiasAdd/ReadVariableOp", "op": "Const", "attr": {"dtype": {"type": "DT_FLOAT"}, "value": {"tensor": {"dtype": "DT_FLOAT", "tensorShape": {"dim": [{"size": "1152"}]}}}}}, {"name": "model/630/Pad/paddings", "op": "Const", "attr": {"dtype": {"type": "DT_INT32"}, "value": {"tensor": {"dtype": "DT_INT32", "tensorShape": {"dim": [{"size": "4"}, {"size": "2"}]}}}}}, {"name": "model/801/transpose/perm", "op": "Const", "attr": {"value": {"tensor": {"dtype": "DT_INT32", "tensorShape": {"dim": [{"size": "4"}]}}}, "dtype": {"type": "DT_INT32"}}}, {"name": "model/801/depthwise/ReadVariableOp", "op": "Const", "attr": {"value": {"tensor": {"dtype": "DT_FLOAT", "tensorShape": {"dim": [{"size": "5"}, {"size": "5"}, {"size": "1152"}, {"size": "1"}]}}}, "dtype": {"type": "DT_FLOAT"}}}, {"name": "model/801/transpose_1/perm", "op": "Const", "attr": {"value": {"tensor": {"dtype": "DT_INT32", "tensorShape": {"dim": [{"size": "4"}]}}}, "dtype": {"type": "DT_INT32"}}}, {"name": "model/801/BiasAdd/ReadVariableOp", "op": "Const", "attr": {"value": {"tensor": {"dtype": "DT_FLOAT", "tensorShape": {"dim": [{"size": "1152"}]}}}, "dtype": {"type": "DT_FLOAT"}}}, {"name": "model/804/Conv2D/ReadVariableOp", "op": "Const", "attr": {"value": {"tensor": {"dtype": "DT_FLOAT", "tensorShape": {"dim": [{"size": "1"}, {"size": "1"}, {"size": "1152"}, {"size": "192"}]}}}, "dtype": {"type": "DT_FLOAT"}}}, {"name": "model/804/BiasAdd/ReadVariableOp", "op": "Const", "attr": {"value": {"tensor": {"dtype": "DT_FLOAT", "tensorShape": {"dim": [{"size": "192"}]}}}, "dtype": {"type": "DT_FLOAT"}}}, {"name": "model/616/Mean/reduction_indices", "op": "Const", "attr": {"value": {"tensor": {"dtype": "DT_INT32", "tensorShape": {"dim": [{"size": "2"}]}}}, "dtype": {"type": "DT_INT32"}}}, {"name": "model/616_EXPAND1/ExpandDims/dim", "op": "Const", "attr": {"dtype": {"type": "DT_INT32"}, "value": {"tensor": {"dtype": "DT_INT32", "tensorShape": {}}}}}, {"name": "model/616_EXPAND2/ExpandDims/dim", "op": "Const", "attr": {"dtype": {"type": "DT_INT32"}, "value": {"tensor": {"dtype": "DT_INT32", "tensorShape": {}}}}}, {"name": "model/617/Conv2D/ReadVariableOp", "op": "Const", "attr": {"dtype": {"type": "DT_FLOAT"}, "value": {"tensor": {"dtype": "DT_FLOAT", "tensorShape": {"dim": [{"size": "1"}, {"size": "1"}, {"size": "1152"}, {"size": "48"}]}}}}}, {"name": "model/617/BiasAdd/ReadVariableOp", "op": "Const", "attr": {"dtype": {"type": "DT_FLOAT"}, "value": {"tensor": {"dtype": "DT_FLOAT", "tensorShape": {"dim": [{"size": "48"}]}}}}}, {"name": "model/620/Conv2D/ReadVariableOp", "op": "Const", "attr": {"value": {"tensor": {"dtype": "DT_FLOAT", "tensorShape": {"dim": [{"size": "1"}, {"size": "1"}, {"size": "48"}, {"size": "1152"}]}}}, "dtype": {"type": "DT_FLOAT"}}}, {"name": "model/620/BiasAdd/ReadVariableOp", "op": "Const", "attr": {"dtype": {"type": "DT_FLOAT"}, "value": {"tensor": {"dtype": "DT_FLOAT", "tensorShape": {"dim": [{"size": "1152"}]}}}}}, {"name": "model/789/Conv2D/ReadVariableOp", "op": "Const", "attr": {"dtype": {"type": "DT_FLOAT"}, "value": {"tensor": {"dtype": "DT_FLOAT", "tensorShape": {"dim": [{"size": "1"}, {"size": "1"}, {"size": "192"}, {"size": "1152"}]}}}}}, {"name": "model/789/BiasAdd/ReadVariableOp", "op": "Const", "attr": {"value": {"tensor": {"dtype": "DT_FLOAT", "tensorShape": {"dim": [{"size": "1152"}]}}}, "dtype": {"type": "DT_FLOAT"}}}, {"name": "model/611/Pad/paddings", "op": "Const", "attr": {"value": {"tensor": {"dtype": "DT_INT32", "tensorShape": {"dim": [{"size": "4"}, {"size": "2"}]}}}, "dtype": {"type": "DT_INT32"}}}, {"name": "model/792/transpose/perm", "op": "Const", "attr": {"value": {"tensor": {"dtype": "DT_INT32", "tensorShape": {"dim": [{"size": "4"}]}}}, "dtype": {"type": "DT_INT32"}}}, {"name": "model/792/depthwise/ReadVariableOp", "op": "Const", "attr": {"dtype": {"type": "DT_FLOAT"}, "value": {"tensor": {"dtype": "DT_FLOAT", "tensorShape": {"dim": [{"size": "5"}, {"size": "5"}, {"size": "1152"}, {"size": "1"}]}}}}}, {"name": "model/792/transpose_1/perm", "op": "Const", "attr": {"dtype": {"type": "DT_INT32"}, "value": {"tensor": {"dtype": "DT_INT32", "tensorShape": {"dim": [{"size": "4"}]}}}}}, {"name": "model/792/BiasAdd/ReadVariableOp", "op": "Const", "attr": {"value": {"tensor": {"dtype": "DT_FLOAT", "tensorShape": {"dim": [{"size": "1152"}]}}}, "dtype": {"type": "DT_FLOAT"}}}, {"name": "model/795/Conv2D/ReadVariableOp", "op": "Const", "attr": {"dtype": {"type": "DT_FLOAT"}, "value": {"tensor": {"dtype": "DT_FLOAT", "tensorShape": {"dim": [{"size": "1"}, {"size": "1"}, {"size": "1152"}, {"size": "192"}]}}}}}, {"name": "model/795/BiasAdd/ReadVariableOp", "op": "Const", "attr": {"value": {"tensor": {"dtype": "DT_FLOAT", "tensorShape": {"dim": [{"size": "192"}]}}}, "dtype": {"type": "DT_FLOAT"}}}, {"name": "model/597/Mean/reduction_indices", "op": "Const", "attr": {"dtype": {"type": "DT_INT32"}, "value": {"tensor": {"dtype": "DT_INT32", "tensorShape": {"dim": [{"size": "2"}]}}}}}, {"name": "model/597_EXPAND1/ExpandDims/dim", "op": "Const", "attr": {"dtype": {"type": "DT_INT32"}, "value": {"tensor": {"dtype": "DT_INT32", "tensorShape": {}}}}}, {"name": "model/597_EXPAND2/ExpandDims/dim", "op": "Const", "attr": {"value": {"tensor": {"dtype": "DT_INT32", "tensorShape": {}}}, "dtype": {"type": "DT_INT32"}}}, {"name": "model/598/Conv2D/ReadVariableOp", "op": "Const", "attr": {"value": {"tensor": {"dtype": "DT_FLOAT", "tensorShape": {"dim": [{"size": "1"}, {"size": "1"}, {"size": "1152"}, {"size": "48"}]}}}, "dtype": {"type": "DT_FLOAT"}}}, {"name": "model/598/BiasAdd/ReadVariableOp", "op": "Const", "attr": {"dtype": {"type": "DT_FLOAT"}, "value": {"tensor": {"dtype": "DT_FLOAT", "tensorShape": {"dim": [{"size": "48"}]}}}}}, {"name": "model/601/Conv2D/ReadVariableOp", "op": "Const", "attr": {"value": {"tensor": {"dtype": "DT_FLOAT", "tensorShape": {"dim": [{"size": "1"}, {"size": "1"}, {"size": "48"}, {"size": "1152"}]}}}, "dtype": {"type": "DT_FLOAT"}}}, {"name": "model/601/BiasAdd/ReadVariableOp", "op": "Const", "attr": {"dtype": {"type": "DT_FLOAT"}, "value": {"tensor": {"dtype": "DT_FLOAT", "tensorShape": {"dim": [{"size": "1152"}]}}}}}, {"name": "model/780/Conv2D/ReadVariableOp", "op": "Const", "attr": {"dtype": {"type": "DT_FLOAT"}, "value": {"tensor": {"dtype": "DT_FLOAT", "tensorShape": {"dim": [{"size": "1"}, {"size": "1"}, {"size": "192"}, {"size": "1152"}]}}}}}, {"name": "model/780/BiasAdd/ReadVariableOp", "op": "Const", "attr": {"value": {"tensor": {"dtype": "DT_FLOAT", "tensorShape": {"dim": [{"size": "1152"}]}}}, "dtype": {"type": "DT_FLOAT"}}}, {"name": "model/592/Pad/paddings", "op": "Const", "attr": {"dtype": {"type": "DT_INT32"}, "value": {"tensor": {"dtype": "DT_INT32", "tensorShape": {"dim": [{"size": "4"}, {"size": "2"}]}}}}}, {"name": "model/783/transpose/perm", "op": "Const", "attr": {"value": {"tensor": {"dtype": "DT_INT32", "tensorShape": {"dim": [{"size": "4"}]}}}, "dtype": {"type": "DT_INT32"}}}, {"name": "model/783/depthwise/ReadVariableOp", "op": "Const", "attr": {"value": {"tensor": {"dtype": "DT_FLOAT", "tensorShape": {"dim": [{"size": "5"}, {"size": "5"}, {"size": "1152"}, {"size": "1"}]}}}, "dtype": {"type": "DT_FLOAT"}}}, {"name": "model/783/transpose_1/perm", "op": "Const", "attr": {"value": {"tensor": {"dtype": "DT_INT32", "tensorShape": {"dim": [{"size": "4"}]}}}, "dtype": {"type": "DT_INT32"}}}, {"name": "model/783/BiasAdd/ReadVariableOp", "op": "Const", "attr": {"value": {"tensor": {"dtype": "DT_FLOAT", "tensorShape": {"dim": [{"size": "1152"}]}}}, "dtype": {"type": "DT_FLOAT"}}}, {"name": "model/786/Conv2D/ReadVariableOp", "op": "Const", "attr": {"dtype": {"type": "DT_FLOAT"}, "value": {"tensor": {"dtype": "DT_FLOAT", "tensorShape": {"dim": [{"size": "1"}, {"size": "1"}, {"size": "1152"}, {"size": "192"}]}}}}}, {"name": "model/786/BiasAdd/ReadVariableOp", "op": "Const", "attr": {"dtype": {"type": "DT_FLOAT"}, "value": {"tensor": {"dtype": "DT_FLOAT", "tensorShape": {"dim": [{"size": "192"}]}}}}}, {"name": "model/579/Mean/reduction_indices", "op": "Const", "attr": {"dtype": {"type": "DT_INT32"}, "value": {"tensor": {"dtype": "DT_INT32", "tensorShape": {"dim": [{"size": "2"}]}}}}}, {"name": "model/579_EXPAND1/ExpandDims/dim", "op": "Const", "attr": {"value": {"tensor": {"dtype": "DT_INT32", "tensorShape": {}}}, "dtype": {"type": "DT_INT32"}}}, {"name": "model/579_EXPAND2/ExpandDims/dim", "op": "Const", "attr": {"dtype": {"type": "DT_INT32"}, "value": {"tensor": {"dtype": "DT_INT32", "tensorShape": {}}}}}, {"name": "model/580/Conv2D/ReadVariableOp", "op": "Const", "attr": {"dtype": {"type": "DT_FLOAT"}, "value": {"tensor": {"dtype": "DT_FLOAT", "tensorShape": {"dim": [{"size": "1"}, {"size": "1"}, {"size": "672"}, {"size": "28"}]}}}}}, {"name": "model/580/BiasAdd/ReadVariableOp", "op": "Const", "attr": {"value": {"tensor": {"dtype": "DT_FLOAT", "tensorShape": {"dim": [{"size": "28"}]}}}, "dtype": {"type": "DT_FLOAT"}}}, {"name": "model/583/Conv2D/ReadVariableOp", "op": "Const", "attr": {"value": {"tensor": {"dtype": "DT_FLOAT", "tensorShape": {"dim": [{"size": "1"}, {"size": "1"}, {"size": "28"}, {"size": "672"}]}}}, "dtype": {"type": "DT_FLOAT"}}}, {"name": "model/583/BiasAdd/ReadVariableOp", "op": "Const", "attr": {"value": {"tensor": {"dtype": "DT_FLOAT", "tensorShape": {"dim": [{"size": "672"}]}}}, "dtype": {"type": "DT_FLOAT"}}}, {"name": "model/560/Mean/reduction_indices", "op": "Const", "attr": {"value": {"tensor": {"dtype": "DT_INT32", "tensorShape": {"dim": [{"size": "2"}]}}}, "dtype": {"type": "DT_INT32"}}}, {"name": "model/560_EXPAND1/ExpandDims/dim", "op": "Const", "attr": {"dtype": {"type": "DT_INT32"}, "value": {"tensor": {"dtype": "DT_INT32", "tensorShape": {}}}}}, {"name": "model/560_EXPAND2/ExpandDims/dim", "op": "Const", "attr": {"dtype": {"type": "DT_INT32"}, "value": {"tensor": {"dtype": "DT_INT32", "tensorShape": {}}}}}, {"name": "model/561/Conv2D/ReadVariableOp", "op": "Const", "attr": {"value": {"tensor": {"dtype": "DT_FLOAT", "tensorShape": {"dim": [{"size": "1"}, {"size": "1"}, {"size": "672"}, {"size": "28"}]}}}, "dtype": {"type": "DT_FLOAT"}}}, {"name": "model/561/BiasAdd/ReadVariableOp", "op": "Const", "attr": {"value": {"tensor": {"dtype": "DT_FLOAT", "tensorShape": {"dim": [{"size": "28"}]}}}, "dtype": {"type": "DT_FLOAT"}}}, {"name": "model/564/Conv2D/ReadVariableOp", "op": "Const", "attr": {"dtype": {"type": "DT_FLOAT"}, "value": {"tensor": {"dtype": "DT_FLOAT", "tensorShape": {"dim": [{"size": "1"}, {"size": "1"}, {"size": "28"}, {"size": "672"}]}}}}}, {"name": "model/564/BiasAdd/ReadVariableOp", "op": "Const", "attr": {"value": {"tensor": {"dtype": "DT_FLOAT", "tensorShape": {"dim": [{"size": "672"}]}}}, "dtype": {"type": "DT_FLOAT"}}}, {"name": "model/762/Conv2D/ReadVariableOp", "op": "Const", "attr": {"value": {"tensor": {"dtype": "DT_FLOAT", "tensorShape": {"dim": [{"size": "1"}, {"size": "1"}, {"size": "112"}, {"size": "672"}]}}}, "dtype": {"type": "DT_FLOAT"}}}, {"name": "model/762/BiasAdd/ReadVariableOp", "op": "Const", "attr": {"value": {"tensor": {"dtype": "DT_FLOAT", "tensorShape": {"dim": [{"size": "672"}]}}}, "dtype": {"type": "DT_FLOAT"}}}, {"name": "model/555/Pad/paddings", "op": "Const", "attr": {"value": {"tensor": {"dtype": "DT_INT32", "tensorShape": {"dim": [{"size": "4"}, {"size": "2"}]}}}, "dtype": {"type": "DT_INT32"}}}, {"name": "model/765/transpose/perm", "op": "Const", "attr": {"value": {"tensor": {"dtype": "DT_INT32", "tensorShape": {"dim": [{"size": "4"}]}}}, "dtype": {"type": "DT_INT32"}}}, {"name": "model/765/depthwise/ReadVariableOp", "op": "Const", "attr": {"dtype": {"type": "DT_FLOAT"}, "value": {"tensor": {"dtype": "DT_FLOAT", "tensorShape": {"dim": [{"size": "5"}, {"size": "5"}, {"size": "672"}, {"size": "1"}]}}}}}, {"name": "model/765/transpose_1/perm", "op": "Const", "attr": {"dtype": {"type": "DT_INT32"}, "value": {"tensor": {"dtype": "DT_INT32", "tensorShape": {"dim": [{"size": "4"}]}}}}}, {"name": "model/765/BiasAdd/ReadVariableOp", "op": "Const", "attr": {"dtype": {"type": "DT_FLOAT"}, "value": {"tensor": {"dtype": "DT_FLOAT", "tensorShape": {"dim": [{"size": "672"}]}}}}}, {"name": "model/768/Conv2D/ReadVariableOp", "op": "Const", "attr": {"dtype": {"type": "DT_FLOAT"}, "value": {"tensor": {"dtype": "DT_FLOAT", "tensorShape": {"dim": [{"size": "1"}, {"size": "1"}, {"size": "672"}, {"size": "112"}]}}}}}, {"name": "model/768/BiasAdd/ReadVariableOp", "op": "Const", "attr": {"value": {"tensor": {"dtype": "DT_FLOAT", "tensorShape": {"dim": [{"size": "112"}]}}}, "dtype": {"type": "DT_FLOAT"}}}, {"name": "model/541/Mean/reduction_indices", "op": "Const", "attr": {"value": {"tensor": {"dtype": "DT_INT32", "tensorShape": {"dim": [{"size": "2"}]}}}, "dtype": {"type": "DT_INT32"}}}, {"name": "model/541_EXPAND1/ExpandDims/dim", "op": "Const", "attr": {"value": {"tensor": {"dtype": "DT_INT32", "tensorShape": {}}}, "dtype": {"type": "DT_INT32"}}}, {"name": "model/541_EXPAND2/ExpandDims/dim", "op": "Const", "attr": {"value": {"tensor": {"dtype": "DT_INT32", "tensorShape": {}}}, "dtype": {"type": "DT_INT32"}}}, {"name": "model/542/Conv2D/ReadVariableOp", "op": "Const", "attr": {"value": {"tensor": {"dtype": "DT_FLOAT", "tensorShape": {"dim": [{"size": "1"}, {"size": "1"}, {"size": "672"}, {"size": "28"}]}}}, "dtype": {"type": "DT_FLOAT"}}}, {"name": "model/542/BiasAdd/ReadVariableOp", "op": "Const", "attr": {"value": {"tensor": {"dtype": "DT_FLOAT", "tensorShape": {"dim": [{"size": "28"}]}}}, "dtype": {"type": "DT_FLOAT"}}}, {"name": "model/545/Conv2D/ReadVariableOp", "op": "Const", "attr": {"dtype": {"type": "DT_FLOAT"}, "value": {"tensor": {"dtype": "DT_FLOAT", "tensorShape": {"dim": [{"size": "1"}, {"size": "1"}, {"size": "28"}, {"size": "672"}]}}}}}, {"name": "model/545/BiasAdd/ReadVariableOp", "op": "Const", "attr": {"dtype": {"type": "DT_FLOAT"}, "value": {"tensor": {"dtype": "DT_FLOAT", "tensorShape": {"dim": [{"size": "672"}]}}}}}, {"name": "model/753/Conv2D/ReadVariableOp", "op": "Const", "attr": {"dtype": {"type": "DT_FLOAT"}, "value": {"tensor": {"dtype": "DT_FLOAT", "tensorShape": {"dim": [{"size": "1"}, {"size": "1"}, {"size": "112"}, {"size": "672"}]}}}}}, {"name": "model/753/BiasAdd/ReadVariableOp", "op": "Const", "attr": {"value": {"tensor": {"dtype": "DT_FLOAT", "tensorShape": {"dim": [{"size": "672"}]}}}, "dtype": {"type": "DT_FLOAT"}}}, {"name": "model/536/Pad/paddings", "op": "Const", "attr": {"value": {"tensor": {"dtype": "DT_INT32", "tensorShape": {"dim": [{"size": "4"}, {"size": "2"}]}}}, "dtype": {"type": "DT_INT32"}}}, {"name": "model/756/transpose/perm", "op": "Const", "attr": {"dtype": {"type": "DT_INT32"}, "value": {"tensor": {"dtype": "DT_INT32", "tensorShape": {"dim": [{"size": "4"}]}}}}}, {"name": "model/756/depthwise/ReadVariableOp", "op": "Const", "attr": {"value": {"tensor": {"dtype": "DT_FLOAT", "tensorShape": {"dim": [{"size": "5"}, {"size": "5"}, {"size": "672"}, {"size": "1"}]}}}, "dtype": {"type": "DT_FLOAT"}}}, {"name": "model/756/transpose_1/perm", "op": "Const", "attr": {"dtype": {"type": "DT_INT32"}, "value": {"tensor": {"dtype": "DT_INT32", "tensorShape": {"dim": [{"size": "4"}]}}}}}, {"name": "model/756/BiasAdd/ReadVariableOp", "op": "Const", "attr": {"value": {"tensor": {"dtype": "DT_FLOAT", "tensorShape": {"dim": [{"size": "672"}]}}}, "dtype": {"type": "DT_FLOAT"}}}, {"name": "model/759/Conv2D/ReadVariableOp", "op": "Const", "attr": {"value": {"tensor": {"dtype": "DT_FLOAT", "tensorShape": {"dim": [{"size": "1"}, {"size": "1"}, {"size": "672"}, {"size": "112"}]}}}, "dtype": {"type": "DT_FLOAT"}}}, {"name": "model/759/BiasAdd/ReadVariableOp", "op": "Const", "attr": {"value": {"tensor": {"dtype": "DT_FLOAT", "tensorShape": {"dim": [{"size": "112"}]}}}, "dtype": {"type": "DT_FLOAT"}}}, {"name": "model/523/Mean/reduction_indices", "op": "Const", "attr": {"dtype": {"type": "DT_INT32"}, "value": {"tensor": {"dtype": "DT_INT32", "tensorShape": {"dim": [{"size": "2"}]}}}}}, {"name": "model/523_EXPAND1/ExpandDims/dim", "op": "Const", "attr": {"dtype": {"type": "DT_INT32"}, "value": {"tensor": {"dtype": "DT_INT32", "tensorShape": {}}}}}, {"name": "model/523_EXPAND2/ExpandDims/dim", "op": "Const", "attr": {"value": {"tensor": {"dtype": "DT_INT32", "tensorShape": {}}}, "dtype": {"type": "DT_INT32"}}}, {"name": "model/524/Conv2D/ReadVariableOp", "op": "Const", "attr": {"dtype": {"type": "DT_FLOAT"}, "value": {"tensor": {"dtype": "DT_FLOAT", "tensorShape": {"dim": [{"size": "1"}, {"size": "1"}, {"size": "480"}, {"size": "20"}]}}}}}, {"name": "model/524/BiasAdd/ReadVariableOp", "op": "Const", "attr": {"value": {"tensor": {"dtype": "DT_FLOAT", "tensorShape": {"dim": [{"size": "20"}]}}}, "dtype": {"type": "DT_FLOAT"}}}, {"name": "model/527/Conv2D/ReadVariableOp", "op": "Const", "attr": {"value": {"tensor": {"dtype": "DT_FLOAT", "tensorShape": {"dim": [{"size": "1"}, {"size": "1"}, {"size": "20"}, {"size": "480"}]}}}, "dtype": {"type": "DT_FLOAT"}}}, {"name": "model/527/BiasAdd/ReadVariableOp", "op": "Const", "attr": {"value": {"tensor": {"dtype": "DT_FLOAT", "tensorShape": {"dim": [{"size": "480"}]}}}, "dtype": {"type": "DT_FLOAT"}}}, {"name": "model/504/Mean/reduction_indices", "op": "Const", "attr": {"dtype": {"type": "DT_INT32"}, "value": {"tensor": {"dtype": "DT_INT32", "tensorShape": {"dim": [{"size": "2"}]}}}}}, {"name": "model/504_EXPAND1/ExpandDims/dim", "op": "Const", "attr": {"dtype": {"type": "DT_INT32"}, "value": {"tensor": {"dtype": "DT_INT32", "tensorShape": {}}}}}, {"name": "model/504_EXPAND2/ExpandDims/dim", "op": "Const", "attr": {"dtype": {"type": "DT_INT32"}, "value": {"tensor": {"dtype": "DT_INT32", "tensorShape": {}}}}}, {"name": "model/505/Conv2D/ReadVariableOp", "op": "Const", "attr": {"value": {"tensor": {"dtype": "DT_FLOAT", "tensorShape": {"dim": [{"size": "1"}, {"size": "1"}, {"size": "480"}, {"size": "20"}]}}}, "dtype": {"type": "DT_FLOAT"}}}, {"name": "model/505/BiasAdd/ReadVariableOp", "op": "Const", "attr": {"dtype": {"type": "DT_FLOAT"}, "value": {"tensor": {"dtype": "DT_FLOAT", "tensorShape": {"dim": [{"size": "20"}]}}}}}, {"name": "model/508/Conv2D/ReadVariableOp", "op": "Const", "attr": {"dtype": {"type": "DT_FLOAT"}, "value": {"tensor": {"dtype": "DT_FLOAT", "tensorShape": {"dim": [{"size": "1"}, {"size": "1"}, {"size": "20"}, {"size": "480"}]}}}}}, {"name": "model/508/BiasAdd/ReadVariableOp", "op": "Const", "attr": {"value": {"tensor": {"dtype": "DT_FLOAT", "tensorShape": {"dim": [{"size": "480"}]}}}, "dtype": {"type": "DT_FLOAT"}}}, {"name": "model/735/Conv2D/ReadVariableOp", "op": "Const", "attr": {"dtype": {"type": "DT_FLOAT"}, "value": {"tensor": {"dtype": "DT_FLOAT", "tensorShape": {"dim": [{"size": "1"}, {"size": "1"}, {"size": "80"}, {"size": "480"}]}}}}}, {"name": "model/735/BiasAdd/ReadVariableOp", "op": "Const", "attr": {"dtype": {"type": "DT_FLOAT"}, "value": {"tensor": {"dtype": "DT_FLOAT", "tensorShape": {"dim": [{"size": "480"}]}}}}}, {"name": "model/499/Pad/paddings", "op": "Const", "attr": {"dtype": {"type": "DT_INT32"}, "value": {"tensor": {"dtype": "DT_INT32", "tensorShape": {"dim": [{"size": "4"}, {"size": "2"}]}}}}}, {"name": "model/738/transpose/perm", "op": "Const", "attr": {"dtype": {"type": "DT_INT32"}, "value": {"tensor": {"dtype": "DT_INT32", "tensorShape": {"dim": [{"size": "4"}]}}}}}, {"name": "model/738/depthwise/ReadVariableOp", "op": "Const", "attr": {"dtype": {"type": "DT_FLOAT"}, "value": {"tensor": {"dtype": "DT_FLOAT", "tensorShape": {"dim": [{"size": "3"}, {"size": "3"}, {"size": "480"}, {"size": "1"}]}}}}}, {"name": "model/738/transpose_1/perm", "op": "Const", "attr": {"dtype": {"type": "DT_INT32"}, "value": {"tensor": {"dtype": "DT_INT32", "tensorShape": {"dim": [{"size": "4"}]}}}}}, {"name": "model/738/BiasAdd/ReadVariableOp", "op": "Const", "attr": {"value": {"tensor": {"dtype": "DT_FLOAT", "tensorShape": {"dim": [{"size": "480"}]}}}, "dtype": {"type": "DT_FLOAT"}}}, {"name": "model/741/Conv2D/ReadVariableOp", "op": "Const", "attr": {"value": {"tensor": {"dtype": "DT_FLOAT", "tensorShape": {"dim": [{"size": "1"}, {"size": "1"}, {"size": "480"}, {"size": "80"}]}}}, "dtype": {"type": "DT_FLOAT"}}}, {"name": "model/741/BiasAdd/ReadVariableOp", "op": "Const", "attr": {"dtype": {"type": "DT_FLOAT"}, "value": {"tensor": {"dtype": "DT_FLOAT", "tensorShape": {"dim": [{"size": "80"}]}}}}}, {"name": "model/485/Mean/reduction_indices", "op": "Const", "attr": {"dtype": {"type": "DT_INT32"}, "value": {"tensor": {"dtype": "DT_INT32", "tensorShape": {"dim": [{"size": "2"}]}}}}}, {"name": "model/485_EXPAND1/ExpandDims/dim", "op": "Const", "attr": {"dtype": {"type": "DT_INT32"}, "value": {"tensor": {"dtype": "DT_INT32", "tensorShape": {}}}}}, {"name": "model/485_EXPAND2/ExpandDims/dim", "op": "Const", "attr": {"value": {"tensor": {"dtype": "DT_INT32", "tensorShape": {}}}, "dtype": {"type": "DT_INT32"}}}, {"name": "model/486/Conv2D/ReadVariableOp", "op": "Const", "attr": {"value": {"tensor": {"dtype": "DT_FLOAT", "tensorShape": {"dim": [{"size": "1"}, {"size": "1"}, {"size": "480"}, {"size": "20"}]}}}, "dtype": {"type": "DT_FLOAT"}}}, {"name": "model/486/BiasAdd/ReadVariableOp", "op": "Const", "attr": {"value": {"tensor": {"dtype": "DT_FLOAT", "tensorShape": {"dim": [{"size": "20"}]}}}, "dtype": {"type": "DT_FLOAT"}}}, {"name": "model/489/Conv2D/ReadVariableOp", "op": "Const", "attr": {"dtype": {"type": "DT_FLOAT"}, "value": {"tensor": {"dtype": "DT_FLOAT", "tensorShape": {"dim": [{"size": "1"}, {"size": "1"}, {"size": "20"}, {"size": "480"}]}}}}}, {"name": "model/489/BiasAdd/ReadVariableOp", "op": "Const", "attr": {"dtype": {"type": "DT_FLOAT"}, "value": {"tensor": {"dtype": "DT_FLOAT", "tensorShape": {"dim": [{"size": "480"}]}}}}}, {"name": "model/726/Conv2D/ReadVariableOp", "op": "Const", "attr": {"dtype": {"type": "DT_FLOAT"}, "value": {"tensor": {"dtype": "DT_FLOAT", "tensorShape": {"dim": [{"size": "1"}, {"size": "1"}, {"size": "80"}, {"size": "480"}]}}}}}, {"name": "model/726/BiasAdd/ReadVariableOp", "op": "Const", "attr": {"dtype": {"type": "DT_FLOAT"}, "value": {"tensor": {"dtype": "DT_FLOAT", "tensorShape": {"dim": [{"size": "480"}]}}}}}, {"name": "model/480/Pad/paddings", "op": "Const", "attr": {"value": {"tensor": {"dtype": "DT_INT32", "tensorShape": {"dim": [{"size": "4"}, {"size": "2"}]}}}, "dtype": {"type": "DT_INT32"}}}, {"name": "model/729/transpose/perm", "op": "Const", "attr": {"dtype": {"type": "DT_INT32"}, "value": {"tensor": {"dtype": "DT_INT32", "tensorShape": {"dim": [{"size": "4"}]}}}}}, {"name": "model/729/depthwise/ReadVariableOp", "op": "Const", "attr": {"value": {"tensor": {"dtype": "DT_FLOAT", "tensorShape": {"dim": [{"size": "3"}, {"size": "3"}, {"size": "480"}, {"size": "1"}]}}}, "dtype": {"type": "DT_FLOAT"}}}, {"name": "model/729/transpose_1/perm", "op": "Const", "attr": {"value": {"tensor": {"dtype": "DT_INT32", "tensorShape": {"dim": [{"size": "4"}]}}}, "dtype": {"type": "DT_INT32"}}}, {"name": "model/729/BiasAdd/ReadVariableOp", "op": "Const", "attr": {"dtype": {"type": "DT_FLOAT"}, "value": {"tensor": {"dtype": "DT_FLOAT", "tensorShape": {"dim": [{"size": "480"}]}}}}}, {"name": "model/732/Conv2D/ReadVariableOp", "op": "Const", "attr": {"dtype": {"type": "DT_FLOAT"}, "value": {"tensor": {"dtype": "DT_FLOAT", "tensorShape": {"dim": [{"size": "1"}, {"size": "1"}, {"size": "480"}, {"size": "80"}]}}}}}, {"name": "model/732/BiasAdd/ReadVariableOp", "op": "Const", "attr": {"value": {"tensor": {"dtype": "DT_FLOAT", "tensorShape": {"dim": [{"size": "80"}]}}}, "dtype": {"type": "DT_FLOAT"}}}, {"name": "model/467/Mean/reduction_indices", "op": "Const", "attr": {"value": {"tensor": {"dtype": "DT_INT32", "tensorShape": {"dim": [{"size": "2"}]}}}, "dtype": {"type": "DT_INT32"}}}, {"name": "model/467_EXPAND1/ExpandDims/dim", "op": "Const", "attr": {"dtype": {"type": "DT_INT32"}, "value": {"tensor": {"dtype": "DT_INT32", "tensorShape": {}}}}}, {"name": "model/467_EXPAND2/ExpandDims/dim", "op": "Const", "attr": {"value": {"tensor": {"dtype": "DT_INT32", "tensorShape": {}}}, "dtype": {"type": "DT_INT32"}}}, {"name": "model/468/Conv2D/ReadVariableOp", "op": "Const", "attr": {"dtype": {"type": "DT_FLOAT"}, "value": {"tensor": {"dtype": "DT_FLOAT", "tensorShape": {"dim": [{"size": "1"}, {"size": "1"}, {"size": "240"}, {"size": "10"}]}}}}}, {"name": "model/468/BiasAdd/ReadVariableOp", "op": "Const", "attr": {"value": {"tensor": {"dtype": "DT_FLOAT", "tensorShape": {"dim": [{"size": "10"}]}}}, "dtype": {"type": "DT_FLOAT"}}}, {"name": "model/471/Conv2D/ReadVariableOp", "op": "Const", "attr": {"value": {"tensor": {"dtype": "DT_FLOAT", "tensorShape": {"dim": [{"size": "1"}, {"size": "1"}, {"size": "10"}, {"size": "240"}]}}}, "dtype": {"type": "DT_FLOAT"}}}, {"name": "model/471/BiasAdd/ReadVariableOp", "op": "Const", "attr": {"value": {"tensor": {"dtype": "DT_FLOAT", "tensorShape": {"dim": [{"size": "240"}]}}}, "dtype": {"type": "DT_FLOAT"}}}, {"name": "model/448/Mean/reduction_indices", "op": "Const", "attr": {"value": {"tensor": {"dtype": "DT_INT32", "tensorShape": {"dim": [{"size": "2"}]}}}, "dtype": {"type": "DT_INT32"}}}, {"name": "model/448_EXPAND1/ExpandDims/dim", "op": "Const", "attr": {"dtype": {"type": "DT_INT32"}, "value": {"tensor": {"dtype": "DT_INT32", "tensorShape": {}}}}}, {"name": "model/448_EXPAND2/ExpandDims/dim", "op": "Const", "attr": {"value": {"tensor": {"dtype": "DT_INT32", "tensorShape": {}}}, "dtype": {"type": "DT_INT32"}}}, {"name": "model/449/Conv2D/ReadVariableOp", "op": "Const", "attr": {"value": {"tensor": {"dtype": "DT_FLOAT", "tensorShape": {"dim": [{"size": "1"}, {"size": "1"}, {"size": "240"}, {"size": "10"}]}}}, "dtype": {"type": "DT_FLOAT"}}}, {"name": "model/449/BiasAdd/ReadVariableOp", "op": "Const", "attr": {"dtype": {"type": "DT_FLOAT"}, "value": {"tensor": {"dtype": "DT_FLOAT", "tensorShape": {"dim": [{"size": "10"}]}}}}}, {"name": "model/452/Conv2D/ReadVariableOp", "op": "Const", "attr": {"dtype": {"type": "DT_FLOAT"}, "value": {"tensor": {"dtype": "DT_FLOAT", "tensorShape": {"dim": [{"size": "1"}, {"size": "1"}, {"size": "10"}, {"size": "240"}]}}}}}, {"name": "model/452/BiasAdd/ReadVariableOp", "op": "Const", "attr": {"dtype": {"type": "DT_FLOAT"}, "value": {"tensor": {"dtype": "DT_FLOAT", "tensorShape": {"dim": [{"size": "240"}]}}}}}, {"name": "model/708/Conv2D/ReadVariableOp", "op": "Const", "attr": {"value": {"tensor": {"dtype": "DT_FLOAT", "tensorShape": {"dim": [{"size": "1"}, {"size": "1"}, {"size": "40"}, {"size": "240"}]}}}, "dtype": {"type": "DT_FLOAT"}}}, {"name": "model/708/BiasAdd/ReadVariableOp", "op": "Const", "attr": {"dtype": {"type": "DT_FLOAT"}, "value": {"tensor": {"dtype": "DT_FLOAT", "tensorShape": {"dim": [{"size": "240"}]}}}}}, {"name": "model/443/Pad/paddings", "op": "Const", "attr": {"dtype": {"type": "DT_INT32"}, "value": {"tensor": {"dtype": "DT_INT32", "tensorShape": {"dim": [{"size": "4"}, {"size": "2"}]}}}}}, {"name": "model/711/transpose/perm", "op": "Const", "attr": {"value": {"tensor": {"dtype": "DT_INT32", "tensorShape": {"dim": [{"size": "4"}]}}}, "dtype": {"type": "DT_INT32"}}}, {"name": "model/711/depthwise/ReadVariableOp", "op": "Const", "attr": {"dtype": {"type": "DT_FLOAT"}, "value": {"tensor": {"dtype": "DT_FLOAT", "tensorShape": {"dim": [{"size": "5"}, {"size": "5"}, {"size": "240"}, {"size": "1"}]}}}}}, {"name": "model/711/transpose_1/perm", "op": "Const", "attr": {"value": {"tensor": {"dtype": "DT_INT32", "tensorShape": {"dim": [{"size": "4"}]}}}, "dtype": {"type": "DT_INT32"}}}, {"name": "model/711/BiasAdd/ReadVariableOp", "op": "Const", "attr": {"value": {"tensor": {"dtype": "DT_FLOAT", "tensorShape": {"dim": [{"size": "240"}]}}}, "dtype": {"type": "DT_FLOAT"}}}, {"name": "model/714/Conv2D/ReadVariableOp", "op": "Const", "attr": {"dtype": {"type": "DT_FLOAT"}, "value": {"tensor": {"dtype": "DT_FLOAT", "tensorShape": {"dim": [{"size": "1"}, {"size": "1"}, {"size": "240"}, {"size": "40"}]}}}}}, {"name": "model/714/BiasAdd/ReadVariableOp", "op": "Const", "attr": {"value": {"tensor": {"dtype": "DT_FLOAT", "tensorShape": {"dim": [{"size": "40"}]}}}, "dtype": {"type": "DT_FLOAT"}}}, {"name": "model/430/Mean/reduction_indices", "op": "Const", "attr": {"dtype": {"type": "DT_INT32"}, "value": {"tensor": {"dtype": "DT_INT32", "tensorShape": {"dim": [{"size": "2"}]}}}}}, {"name": "model/430_EXPAND1/ExpandDims/dim", "op": "Const", "attr": {"value": {"tensor": {"dtype": "DT_INT32", "tensorShape": {}}}, "dtype": {"type": "DT_INT32"}}}, {"name": "model/430_EXPAND2/ExpandDims/dim", "op": "Const", "attr": {"value": {"tensor": {"dtype": "DT_INT32", "tensorShape": {}}}, "dtype": {"type": "DT_INT32"}}}, {"name": "model/431/Conv2D/ReadVariableOp", "op": "Const", "attr": {"value": {"tensor": {"dtype": "DT_FLOAT", "tensorShape": {"dim": [{"size": "1"}, {"size": "1"}, {"size": "144"}, {"size": "6"}]}}}, "dtype": {"type": "DT_FLOAT"}}}, {"name": "model/431/BiasAdd/ReadVariableOp", "op": "Const", "attr": {"dtype": {"type": "DT_FLOAT"}, "value": {"tensor": {"dtype": "DT_FLOAT", "tensorShape": {"dim": [{"size": "6"}]}}}}}, {"name": "model/434/Conv2D/ReadVariableOp", "op": "Const", "attr": {"dtype": {"type": "DT_FLOAT"}, "value": {"tensor": {"dtype": "DT_FLOAT", "tensorShape": {"dim": [{"size": "1"}, {"size": "1"}, {"size": "6"}, {"size": "144"}]}}}}}, {"name": "model/434/BiasAdd/ReadVariableOp", "op": "Const", "attr": {"dtype": {"type": "DT_FLOAT"}, "value": {"tensor": {"dtype": "DT_FLOAT", "tensorShape": {"dim": [{"size": "144"}]}}}}}, {"name": "model/411/Mean/reduction_indices", "op": "Const", "attr": {"dtype": {"type": "DT_INT32"}, "value": {"tensor": {"dtype": "DT_INT32", "tensorShape": {"dim": [{"size": "2"}]}}}}}, {"name": "model/411_EXPAND1/ExpandDims/dim", "op": "Const", "attr": {"value": {"tensor": {"dtype": "DT_INT32", "tensorShape": {}}}, "dtype": {"type": "DT_INT32"}}}, {"name": "model/411_EXPAND2/ExpandDims/dim", "op": "Const", "attr": {"dtype": {"type": "DT_INT32"}, "value": {"tensor": {"dtype": "DT_INT32", "tensorShape": {}}}}}, {"name": "model/412/Conv2D/ReadVariableOp", "op": "Const", "attr": {"value": {"tensor": {"dtype": "DT_FLOAT", "tensorShape": {"dim": [{"size": "1"}, {"size": "1"}, {"size": "144"}, {"size": "6"}]}}}, "dtype": {"type": "DT_FLOAT"}}}, {"name": "model/412/BiasAdd/ReadVariableOp", "op": "Const", "attr": {"value": {"tensor": {"dtype": "DT_FLOAT", "tensorShape": {"dim": [{"size": "6"}]}}}, "dtype": {"type": "DT_FLOAT"}}}, {"name": "model/415/Conv2D/ReadVariableOp", "op": "Const", "attr": {"dtype": {"type": "DT_FLOAT"}, "value": {"tensor": {"dtype": "DT_FLOAT", "tensorShape": {"dim": [{"size": "1"}, {"size": "1"}, {"size": "6"}, {"size": "144"}]}}}}}, {"name": "model/415/BiasAdd/ReadVariableOp", "op": "Const", "attr": {"value": {"tensor": {"dtype": "DT_FLOAT", "tensorShape": {"dim": [{"size": "144"}]}}}, "dtype": {"type": "DT_FLOAT"}}}, {"name": "model/690/Conv2D/ReadVariableOp", "op": "Const", "attr": {"dtype": {"type": "DT_FLOAT"}, "value": {"tensor": {"dtype": "DT_FLOAT", "tensorShape": {"dim": [{"size": "1"}, {"size": "1"}, {"size": "24"}, {"size": "144"}]}}}}}, {"name": "model/690/BiasAdd/ReadVariableOp", "op": "Const", "attr": {"value": {"tensor": {"dtype": "DT_FLOAT", "tensorShape": {"dim": [{"size": "144"}]}}}, "dtype": {"type": "DT_FLOAT"}}}, {"name": "model/406/Pad/paddings", "op": "Const", "attr": {"value": {"tensor": {"dtype": "DT_INT32", "tensorShape": {"dim": [{"size": "4"}, {"size": "2"}]}}}, "dtype": {"type": "DT_INT32"}}}, {"name": "model/693/transpose/perm", "op": "Const", "attr": {"dtype": {"type": "DT_INT32"}, "value": {"tensor": {"dtype": "DT_INT32", "tensorShape": {"dim": [{"size": "4"}]}}}}}, {"name": "model/693/depthwise/ReadVariableOp", "op": "Const", "attr": {"dtype": {"type": "DT_FLOAT"}, "value": {"tensor": {"dtype": "DT_FLOAT", "tensorShape": {"dim": [{"size": "3"}, {"size": "3"}, {"size": "144"}, {"size": "1"}]}}}}}, {"name": "model/693/transpose_1/perm", "op": "Const", "attr": {"dtype": {"type": "DT_INT32"}, "value": {"tensor": {"dtype": "DT_INT32", "tensorShape": {"dim": [{"size": "4"}]}}}}}, {"name": "model/693/BiasAdd/ReadVariableOp", "op": "Const", "attr": {"dtype": {"type": "DT_FLOAT"}, "value": {"tensor": {"dtype": "DT_FLOAT", "tensorShape": {"dim": [{"size": "144"}]}}}}}, {"name": "model/696/Conv2D/ReadVariableOp", "op": "Const", "attr": {"dtype": {"type": "DT_FLOAT"}, "value": {"tensor": {"dtype": "DT_FLOAT", "tensorShape": {"dim": [{"size": "1"}, {"size": "1"}, {"size": "144"}, {"size": "24"}]}}}}}, {"name": "model/696/BiasAdd/ReadVariableOp", "op": "Const", "attr": {"dtype": {"type": "DT_FLOAT"}, "value": {"tensor": {"dtype": "DT_FLOAT", "tensorShape": {"dim": [{"size": "24"}]}}}}}, {"name": "model/393/Mean/reduction_indices", "op": "Const", "attr": {"value": {"tensor": {"dtype": "DT_INT32", "tensorShape": {"dim": [{"size": "2"}]}}}, "dtype": {"type": "DT_INT32"}}}, {"name": "model/393_EXPAND1/ExpandDims/dim", "op": "Const", "attr": {"value": {"tensor": {"dtype": "DT_INT32", "tensorShape": {}}}, "dtype": {"type": "DT_INT32"}}}, {"name": "model/393_EXPAND2/ExpandDims/dim", "op": "Const", "attr": {"value": {"tensor": {"dtype": "DT_INT32", "tensorShape": {}}}, "dtype": {"type": "DT_INT32"}}}, {"name": "model/394/Conv2D/ReadVariableOp", "op": "Const", "attr": {"value": {"tensor": {"dtype": "DT_FLOAT", "tensorShape": {"dim": [{"size": "1"}, {"size": "1"}, {"size": "96"}, {"size": "4"}]}}}, "dtype": {"type": "DT_FLOAT"}}}, {"name": "model/394/BiasAdd/ReadVariableOp", "op": "Const", "attr": {"dtype": {"type": "DT_FLOAT"}, "value": {"tensor": {"dtype": "DT_FLOAT", "tensorShape": {"dim": [{"size": "4"}]}}}}}, {"name": "model/397/Conv2D/ReadVariableOp", "op": "Const", "attr": {"value": {"tensor": {"dtype": "DT_FLOAT", "tensorShape": {"dim": [{"size": "1"}, {"size": "1"}, {"size": "4"}, {"size": "96"}]}}}, "dtype": {"type": "DT_FLOAT"}}}, {"name": "model/397/BiasAdd/ReadVariableOp", "op": "Const", "attr": {"value": {"tensor": {"dtype": "DT_FLOAT", "tensorShape": {"dim": [{"size": "96"}]}}}, "dtype": {"type": "DT_FLOAT"}}}, {"name": "model/375/Mean/reduction_indices", "op": "Const", "attr": {"dtype": {"type": "DT_INT32"}, "value": {"tensor": {"dtype": "DT_INT32", "tensorShape": {"dim": [{"size": "2"}]}}}}}, {"name": "model/375_EXPAND1/ExpandDims/dim", "op": "Const", "attr": {"value": {"tensor": {"dtype": "DT_INT32", "tensorShape": {}}}, "dtype": {"type": "DT_INT32"}}}, {"name": "model/375_EXPAND2/ExpandDims/dim", "op": "Const", "attr": {"dtype": {"type": "DT_INT32"}, "value": {"tensor": {"dtype": "DT_INT32", "tensorShape": {}}}}}, {"name": "model/376/Conv2D/ReadVariableOp", "op": "Const", "attr": {"dtype": {"type": "DT_FLOAT"}, "value": {"tensor": {"dtype": "DT_FLOAT", "tensorShape": {"dim": [{"size": "1"}, {"size": "1"}, {"size": "32"}, {"size": "8"}]}}}}}, {"name": "model/376/BiasAdd/ReadVariableOp", "op": "Const", "attr": {"value": {"tensor": {"dtype": "DT_FLOAT", "tensorShape": {"dim": [{"size": "8"}]}}}, "dtype": {"type": "DT_FLOAT"}}}, {"name": "model/379/Conv2D/ReadVariableOp", "op": "Const", "attr": {"dtype": {"type": "DT_FLOAT"}, "value": {"tensor": {"dtype": "DT_FLOAT", "tensorShape": {"dim": [{"size": "1"}, {"size": "1"}, {"size": "8"}, {"size": "32"}]}}}}}, {"name": "model/379/BiasAdd/ReadVariableOp", "op": "Const", "attr": {"value": {"tensor": {"dtype": "DT_FLOAT", "tensorShape": {"dim": [{"size": "32"}]}}}, "dtype": {"type": "DT_FLOAT"}}}, {"name": "model/365/Pad/paddings", "op": "Const", "attr": {"dtype": {"type": "DT_INT32"}, "value": {"tensor": {"dtype": "DT_INT32", "tensorShape": {"dim": [{"size": "4"}, {"size": "2"}]}}}}}, {"name": "model/672/Conv2D/ReadVariableOp", "op": "Const", "attr": {"dtype": {"type": "DT_FLOAT"}, "value": {"tensor": {"dtype": "DT_FLOAT", "tensorShape": {"dim": [{"size": "3"}, {"size": "3"}, {"size": "4"}, {"size": "32"}]}}}}}, {"name": "model/672/BiasAdd/ReadVariableOp", "op": "Const", "attr": {"value": {"tensor": {"dtype": "DT_FLOAT", "tensorShape": {"dim": [{"size": "32"}]}}}, "dtype": {"type": "DT_FLOAT"}}}, {"name": "model/370/Pad/paddings", "op": "Const", "attr": {"dtype": {"type": "DT_INT32"}, "value": {"tensor": {"dtype": "DT_INT32", "tensorShape": {"dim": [{"size": "4"}, {"size": "2"}]}}}}}, {"name": "model/675/transpose/perm", "op": "Const", "attr": {"value": {"tensor": {"dtype": "DT_INT32", "tensorShape": {"dim": [{"size": "4"}]}}}, "dtype": {"type": "DT_INT32"}}}, {"name": "model/675/depthwise/ReadVariableOp", "op": "Const", "attr": {"dtype": {"type": "DT_FLOAT"}, "value": {"tensor": {"dtype": "DT_FLOAT", "tensorShape": {"dim": [{"size": "3"}, {"size": "3"}, {"size": "32"}, {"size": "1"}]}}}}}, {"name": "model/675/transpose_1/perm", "op": "Const", "attr": {"value": {"tensor": {"dtype": "DT_INT32", "tensorShape": {"dim": [{"size": "4"}]}}}, "dtype": {"type": "DT_INT32"}}}, {"name": "model/675/BiasAdd/ReadVariableOp", "op": "Const", "attr": {"dtype": {"type": "DT_FLOAT"}, "value": {"tensor": {"dtype": "DT_FLOAT", "tensorShape": {"dim": [{"size": "32"}]}}}}}, {"name": "model/678/Conv2D/ReadVariableOp", "op": "Const", "attr": {"dtype": {"type": "DT_FLOAT"}, "value": {"tensor": {"dtype": "DT_FLOAT", "tensorShape": {"dim": [{"size": "1"}, {"size": "1"}, {"size": "32"}, {"size": "16"}]}}}}}, {"name": "model/678/BiasAdd/ReadVariableOp", "op": "Const", "attr": {"dtype": {"type": "DT_FLOAT"}, "value": {"tensor": {"dtype": "DT_FLOAT", "tensorShape": {"dim": [{"size": "16"}]}}}}}, {"name": "model/681/Conv2D/ReadVariableOp", "op": "Const", "attr": {"dtype": {"type": "DT_FLOAT"}, "value": {"tensor": {"dtype": "DT_FLOAT", "tensorShape": {"dim": [{"size": "1"}, {"size": "1"}, {"size": "16"}, {"size": "96"}]}}}}}, {"name": "model/681/BiasAdd/ReadVariableOp", "op": "Const", "attr": {"value": {"tensor": {"dtype": "DT_FLOAT", "tensorShape": {"dim": [{"size": "96"}]}}}, "dtype": {"type": "DT_FLOAT"}}}, {"name": "model/388/Pad/paddings", "op": "Const", "attr": {"dtype": {"type": "DT_INT32"}, "value": {"tensor": {"dtype": "DT_INT32", "tensorShape": {"dim": [{"size": "4"}, {"size": "2"}]}}}}}, {"name": "model/684/transpose/perm", "op": "Const", "attr": {"value": {"tensor": {"dtype": "DT_INT32", "tensorShape": {"dim": [{"size": "4"}]}}}, "dtype": {"type": "DT_INT32"}}}, {"name": "model/684/depthwise/ReadVariableOp", "op": "Const", "attr": {"dtype": {"type": "DT_FLOAT"}, "value": {"tensor": {"dtype": "DT_FLOAT", "tensorShape": {"dim": [{"size": "3"}, {"size": "3"}, {"size": "96"}, {"size": "1"}]}}}}}, {"name": "model/684/transpose_1/perm", "op": "Const", "attr": {"value": {"tensor": {"dtype": "DT_INT32", "tensorShape": {"dim": [{"size": "4"}]}}}, "dtype": {"type": "DT_INT32"}}}, {"name": "model/684/BiasAdd/ReadVariableOp", "op": "Const", "attr": {"value": {"tensor": {"dtype": "DT_FLOAT", "tensorShape": {"dim": [{"size": "96"}]}}}, "dtype": {"type": "DT_FLOAT"}}}, {"name": "model/687/Conv2D/ReadVariableOp", "op": "Const", "attr": {"dtype": {"type": "DT_FLOAT"}, "value": {"tensor": {"dtype": "DT_FLOAT", "tensorShape": {"dim": [{"size": "1"}, {"size": "1"}, {"size": "96"}, {"size": "24"}]}}}}}, {"name": "model/687/BiasAdd/ReadVariableOp", "op": "Const", "attr": {"value": {"tensor": {"dtype": "DT_FLOAT", "tensorShape": {"dim": [{"size": "24"}]}}}, "dtype": {"type": "DT_FLOAT"}}}, {"name": "model/699/Conv2D/ReadVariableOp", "op": "Const", "attr": {"dtype": {"type": "DT_FLOAT"}, "value": {"tensor": {"dtype": "DT_FLOAT", "tensorShape": {"dim": [{"size": "1"}, {"size": "1"}, {"size": "24"}, {"size": "144"}]}}}}}, {"name": "model/699/BiasAdd/ReadVariableOp", "op": "Const", "attr": {"value": {"tensor": {"dtype": "DT_FLOAT", "tensorShape": {"dim": [{"size": "144"}]}}}, "dtype": {"type": "DT_FLOAT"}}}, {"name": "model/425/Pad/paddings", "op": "Const", "attr": {"dtype": {"type": "DT_INT32"}, "value": {"tensor": {"dtype": "DT_INT32", "tensorShape": {"dim": [{"size": "4"}, {"size": "2"}]}}}}}, {"name": "model/702/transpose/perm", "op": "Const", "attr": {"dtype": {"type": "DT_INT32"}, "value": {"tensor": {"dtype": "DT_INT32", "tensorShape": {"dim": [{"size": "4"}]}}}}}, {"name": "model/702/depthwise/ReadVariableOp", "op": "Const", "attr": {"dtype": {"type": "DT_FLOAT"}, "value": {"tensor": {"dtype": "DT_FLOAT", "tensorShape": {"dim": [{"size": "5"}, {"size": "5"}, {"size": "144"}, {"size": "1"}]}}}}}, {"name": "model/702/transpose_1/perm", "op": "Const", "attr": {"dtype": {"type": "DT_INT32"}, "value": {"tensor": {"dtype": "DT_INT32", "tensorShape": {"dim": [{"size": "4"}]}}}}}, {"name": "model/702/BiasAdd/ReadVariableOp", "op": "Const", "attr": {"dtype": {"type": "DT_FLOAT"}, "value": {"tensor": {"dtype": "DT_FLOAT", "tensorShape": {"dim": [{"size": "144"}]}}}}}, {"name": "model/705/Conv2D/ReadVariableOp", "op": "Const", "attr": {"value": {"tensor": {"dtype": "DT_FLOAT", "tensorShape": {"dim": [{"size": "1"}, {"size": "1"}, {"size": "144"}, {"size": "40"}]}}}, "dtype": {"type": "DT_FLOAT"}}}, {"name": "model/705/BiasAdd/ReadVariableOp", "op": "Const", "attr": {"value": {"tensor": {"dtype": "DT_FLOAT", "tensorShape": {"dim": [{"size": "40"}]}}}, "dtype": {"type": "DT_FLOAT"}}}, {"name": "model/717/Conv2D/ReadVariableOp", "op": "Const", "attr": {"value": {"tensor": {"dtype": "DT_FLOAT", "tensorShape": {"dim": [{"size": "1"}, {"size": "1"}, {"size": "40"}, {"size": "240"}]}}}, "dtype": {"type": "DT_FLOAT"}}}, {"name": "model/717/BiasAdd/ReadVariableOp", "op": "Const", "attr": {"value": {"tensor": {"dtype": "DT_FLOAT", "tensorShape": {"dim": [{"size": "240"}]}}}, "dtype": {"type": "DT_FLOAT"}}}, {"name": "model/462/Pad/paddings", "op": "Const", "attr": {"value": {"tensor": {"dtype": "DT_INT32", "tensorShape": {"dim": [{"size": "4"}, {"size": "2"}]}}}, "dtype": {"type": "DT_INT32"}}}, {"name": "model/720/transpose/perm", "op": "Const", "attr": {"dtype": {"type": "DT_INT32"}, "value": {"tensor": {"dtype": "DT_INT32", "tensorShape": {"dim": [{"size": "4"}]}}}}}, {"name": "model/720/depthwise/ReadVariableOp", "op": "Const", "attr": {"value": {"tensor": {"dtype": "DT_FLOAT", "tensorShape": {"dim": [{"size": "3"}, {"size": "3"}, {"size": "240"}, {"size": "1"}]}}}, "dtype": {"type": "DT_FLOAT"}}}, {"name": "model/720/transpose_1/perm", "op": "Const", "attr": {"value": {"tensor": {"dtype": "DT_INT32", "tensorShape": {"dim": [{"size": "4"}]}}}, "dtype": {"type": "DT_INT32"}}}, {"name": "model/720/BiasAdd/ReadVariableOp", "op": "Const", "attr": {"dtype": {"type": "DT_FLOAT"}, "value": {"tensor": {"dtype": "DT_FLOAT", "tensorShape": {"dim": [{"size": "240"}]}}}}}, {"name": "model/723/Conv2D/ReadVariableOp", "op": "Const", "attr": {"value": {"tensor": {"dtype": "DT_FLOAT", "tensorShape": {"dim": [{"size": "1"}, {"size": "1"}, {"size": "240"}, {"size": "80"}]}}}, "dtype": {"type": "DT_FLOAT"}}}, {"name": "model/723/BiasAdd/ReadVariableOp", "op": "Const", "attr": {"value": {"tensor": {"dtype": "DT_FLOAT", "tensorShape": {"dim": [{"size": "80"}]}}}, "dtype": {"type": "DT_FLOAT"}}}, {"name": "model/744/Conv2D/ReadVariableOp", "op": "Const", "attr": {"value": {"tensor": {"dtype": "DT_FLOAT", "tensorShape": {"dim": [{"size": "1"}, {"size": "1"}, {"size": "80"}, {"size": "480"}]}}}, "dtype": {"type": "DT_FLOAT"}}}, {"name": "model/744/BiasAdd/ReadVariableOp", "op": "Const", "attr": {"dtype": {"type": "DT_FLOAT"}, "value": {"tensor": {"dtype": "DT_FLOAT", "tensorShape": {"dim": [{"size": "480"}]}}}}}, {"name": "model/518/Pad/paddings", "op": "Const", "attr": {"dtype": {"type": "DT_INT32"}, "value": {"tensor": {"dtype": "DT_INT32", "tensorShape": {"dim": [{"size": "4"}, {"size": "2"}]}}}}}, {"name": "model/747/transpose/perm", "op": "Const", "attr": {"dtype": {"type": "DT_INT32"}, "value": {"tensor": {"dtype": "DT_INT32", "tensorShape": {"dim": [{"size": "4"}]}}}}}, {"name": "model/747/depthwise/ReadVariableOp", "op": "Const", "attr": {"dtype": {"type": "DT_FLOAT"}, "value": {"tensor": {"dtype": "DT_FLOAT", "tensorShape": {"dim": [{"size": "5"}, {"size": "5"}, {"size": "480"}, {"size": "1"}]}}}}}, {"name": "model/747/transpose_1/perm", "op": "Const", "attr": {"dtype": {"type": "DT_INT32"}, "value": {"tensor": {"dtype": "DT_INT32", "tensorShape": {"dim": [{"size": "4"}]}}}}}, {"name": "model/747/BiasAdd/ReadVariableOp", "op": "Const", "attr": {"value": {"tensor": {"dtype": "DT_FLOAT", "tensorShape": {"dim": [{"size": "480"}]}}}, "dtype": {"type": "DT_FLOAT"}}}, {"name": "model/750/Conv2D/ReadVariableOp", "op": "Const", "attr": {"dtype": {"type": "DT_FLOAT"}, "value": {"tensor": {"dtype": "DT_FLOAT", "tensorShape": {"dim": [{"size": "1"}, {"size": "1"}, {"size": "480"}, {"size": "112"}]}}}}}, {"name": "model/750/BiasAdd/ReadVariableOp", "op": "Const", "attr": {"dtype": {"type": "DT_FLOAT"}, "value": {"tensor": {"dtype": "DT_FLOAT", "tensorShape": {"dim": [{"size": "112"}]}}}}}, {"name": "model/771/Conv2D/ReadVariableOp", "op": "Const", "attr": {"value": {"tensor": {"dtype": "DT_FLOAT", "tensorShape": {"dim": [{"size": "1"}, {"size": "1"}, {"size": "112"}, {"size": "672"}]}}}, "dtype": {"type": "DT_FLOAT"}}}, {"name": "model/771/BiasAdd/ReadVariableOp", "op": "Const", "attr": {"dtype": {"type": "DT_FLOAT"}, "value": {"tensor": {"dtype": "DT_FLOAT", "tensorShape": {"dim": [{"size": "672"}]}}}}}, {"name": "model/574/Pad/paddings", "op": "Const", "attr": {"dtype": {"type": "DT_INT32"}, "value": {"tensor": {"dtype": "DT_INT32", "tensorShape": {"dim": [{"size": "4"}, {"size": "2"}]}}}}}, {"name": "model/774/transpose/perm", "op": "Const", "attr": {"dtype": {"type": "DT_INT32"}, "value": {"tensor": {"dtype": "DT_INT32", "tensorShape": {"dim": [{"size": "4"}]}}}}}, {"name": "model/774/depthwise/ReadVariableOp", "op": "Const", "attr": {"value": {"tensor": {"dtype": "DT_FLOAT", "tensorShape": {"dim": [{"size": "5"}, {"size": "5"}, {"size": "672"}, {"size": "1"}]}}}, "dtype": {"type": "DT_FLOAT"}}}, {"name": "model/774/transpose_1/perm", "op": "Const", "attr": {"value": {"tensor": {"dtype": "DT_INT32", "tensorShape": {"dim": [{"size": "4"}]}}}, "dtype": {"type": "DT_INT32"}}}, {"name": "model/774/BiasAdd/ReadVariableOp", "op": "Const", "attr": {"dtype": {"type": "DT_FLOAT"}, "value": {"tensor": {"dtype": "DT_FLOAT", "tensorShape": {"dim": [{"size": "672"}]}}}}}, {"name": "model/777/Conv2D/ReadVariableOp", "op": "Const", "attr": {"dtype": {"type": "DT_FLOAT"}, "value": {"tensor": {"dtype": "DT_FLOAT", "tensorShape": {"dim": [{"size": "1"}, {"size": "1"}, {"size": "672"}, {"size": "192"}]}}}}}, {"name": "model/777/BiasAdd/ReadVariableOp", "op": "Const", "attr": {"value": {"tensor": {"dtype": "DT_FLOAT", "tensorShape": {"dim": [{"size": "192"}]}}}, "dtype": {"type": "DT_FLOAT"}}}, {"name": "model/807/Conv2D/ReadVariableOp", "op": "Const", "attr": {"dtype": {"type": "DT_FLOAT"}, "value": {"tensor": {"dtype": "DT_FLOAT", "tensorShape": {"dim": [{"size": "1"}, {"size": "1"}, {"size": "192"}, {"size": "1152"}]}}}}}, {"name": "model/807/BiasAdd/ReadVariableOp", "op": "Const", "attr": {"value": {"tensor": {"dtype": "DT_FLOAT", "tensorShape": {"dim": [{"size": "1152"}]}}}, "dtype": {"type": "DT_FLOAT"}}}, {"name": "model/649/Pad/paddings", "op": "Const", "attr": {"value": {"tensor": {"dtype": "DT_INT32", "tensorShape": {"dim": [{"size": "4"}, {"size": "2"}]}}}, "dtype": {"type": "DT_INT32"}}}, {"name": "model/810/transpose/perm", "op": "Const", "attr": {"value": {"tensor": {"dtype": "DT_INT32", "tensorShape": {"dim": [{"size": "4"}]}}}, "dtype": {"type": "DT_INT32"}}}, {"name": "model/810/depthwise/ReadVariableOp", "op": "Const", "attr": {"value": {"tensor": {"dtype": "DT_FLOAT", "tensorShape": {"dim": [{"size": "3"}, {"size": "3"}, {"size": "1152"}, {"size": "1"}]}}}, "dtype": {"type": "DT_FLOAT"}}}, {"name": "model/810/transpose_1/perm", "op": "Const", "attr": {"dtype": {"type": "DT_INT32"}, "value": {"tensor": {"dtype": "DT_INT32", "tensorShape": {"dim": [{"size": "4"}]}}}}}, {"name": "model/810/BiasAdd/ReadVariableOp", "op": "Const", "attr": {"dtype": {"type": "DT_FLOAT"}, "value": {"tensor": {"dtype": "DT_FLOAT", "tensorShape": {"dim": [{"size": "1152"}]}}}}}, {"name": "model/813/Conv2D/ReadVariableOp", "op": "Const", "attr": {"dtype": {"type": "DT_FLOAT"}, "value": {"tensor": {"dtype": "DT_FLOAT", "tensorShape": {"dim": [{"size": "1"}, {"size": "1"}, {"size": "1152"}, {"size": "320"}]}}}}}, {"name": "model/813/BiasAdd/ReadVariableOp", "op": "Const", "attr": {"value": {"tensor": {"dtype": "DT_FLOAT", "tensorShape": {"dim": [{"size": "320"}]}}}, "dtype": {"type": "DT_FLOAT"}}}, {"name": "model/816/Conv2D/ReadVariableOp", "op": "Const", "attr": {"dtype": {"type": "DT_FLOAT"}, "value": {"tensor": {"dtype": "DT_FLOAT", "tensorShape": {"dim": [{"size": "1"}, {"size": "1"}, {"size": "320"}, {"size": "1280"}]}}}}}, {"name": "model/816/BiasAdd/ReadVariableOp", "op": "Const", "attr": {"value": {"tensor": {"dtype": "DT_FLOAT", "tensorShape": {"dim": [{"size": "1280"}]}}}, "dtype": {"type": "DT_FLOAT"}}}, {"name": "model/667/Mean/reduction_indices", "op": "Const", "attr": {"dtype": {"type": "DT_INT32"}, "value": {"tensor": {"dtype": "DT_INT32", "tensorShape": {"dim": [{"size": "2"}]}}}}}, {"name": "model/667_EXPAND1/ExpandDims/dim", "op": "Const", "attr": {"dtype": {"type": "DT_INT32"}, "value": {"tensor": {"dtype": "DT_INT32", "tensorShape": {}}}}}, {"name": "model/667_EXPAND2/ExpandDims/dim", "op": "Const", "attr": {"value": {"tensor": {"dtype": "DT_INT32", "tensorShape": {}}}, "dtype": {"type": "DT_INT32"}}}, {"name": "model/668/strided_slice/stack", "op": "Const", "attr": {"value": {"tensor": {"dtype": "DT_INT32", "tensorShape": {"dim": [{"size": "1"}]}}}, "dtype": {"type": "DT_INT32"}}}, {"name": "model/668/strided_slice/stack_1", "op": "Const", "attr": {"value": {"tensor": {"dtype": "DT_INT32", "tensorShape": {"dim": [{"size": "1"}]}}}, "dtype": {"type": "DT_INT32"}}}, {"name": "model/668/strided_slice/stack_2", "op": "Const", "attr": {"dtype": {"type": "DT_INT32"}, "value": {"tensor": {"dtype": "DT_INT32", "tensorShape": {"dim": [{"size": "1"}]}}}}}, {"name": "model/668/Reshape/shape/1", "op": "Const", "attr": {"value": {"tensor": {"dtype": "DT_INT32", "tensorShape": {}}}, "dtype": {"type": "DT_INT32"}}}, {"name": "model/669/MatMul/ReadVariableOp", "op": "Const", "attr": {"dtype": {"type": "DT_FLOAT"}, "value": {"tensor": {"dtype": "DT_FLOAT", "tensorShape": {"dim": [{"size": "1280"}, {"size": "100"}]}}}}}, {"name": "model/669/BiasAdd/ReadVariableOp", "op": "Const", "attr": {"value": {"tensor": {"dtype": "DT_FLOAT", "tensorShape": {"dim": [{"size": "100"}]}}}, "dtype": {"type": "DT_FLOAT"}}}, {"name": "model/670/MatMul/ReadVariableOp", "op": "Const", "attr": {"value": {"tensor": {"dtype": "DT_FLOAT", "tensorShape": {"dim": [{"size": "100"}, {"size": "4"}]}}}, "dtype": {"type": "DT_FLOAT"}}}, {"name": "model/670/BiasAdd/ReadVariableOp", "op": "Const", "attr": {"dtype": {"type": "DT_FLOAT"}, "value": {"tensor": {"dtype": "DT_FLOAT", "tensorShape": {"dim": [{"size": "4"}]}}}}}, {"name": "yourInputName", "op": "Placeholder", "attr": {"shape": {"shape": {"dim": [{"size": "-1"}, {"size": "4"}, {"size": "224"}, {"size": "224"}]}}, "dtype": {"type": "DT_FLOAT"}}}, {"name": "model/365/Pad", "op": "Pad", "input": ["yourInputName", "model/365/Pad/paddings"], "attr": {"Tpaddings": {"type": "DT_INT32"}, "T": {"type": "DT_FLOAT"}}}, {"name": "model/672/Conv2D", "op": "Conv2D", "input": ["model/365/Pad", "model/672/Conv2D/ReadVariableOp"], "device": "/device:CPU:0", "attr": {"dilations": {"list": {"i": ["1", "1", "1", "1"]}}, "strides": {"list": {"i": ["1", "1", "2", "2"]}}, "T": {"type": "DT_FLOAT"}, "data_format": {"s": "TkNIVw=="}, "use_cudnn_on_gpu": {"b": true}, "explicit_paddings": {"list": {}}, "padding": {"s": "VkFMSUQ="}}}, {"name": "model/672/BiasAdd", "op": "BiasAdd", "input": ["model/672/Conv2D", "model/672/BiasAdd/ReadVariableOp"], "attr": {"data_format": {"s": "TkNIVw=="}, "T": {"type": "DT_FLOAT"}}}, {"name": "model/368/Sigmoid", "op": "Sigmoid", "input": ["model/672/BiasAdd"], "attr": {"T": {"type": "DT_FLOAT"}}}, {"name": "model/369/mul", "op": "Mul", "input": ["model/672/BiasAdd", "model/368/Sigmoid"], "attr": {"T": {"type": "DT_FLOAT"}}}, {"name": "model/370/Pad", "op": "Pad", "input": ["model/369/mul", "model/370/Pad/paddings"], "attr": {"Tpaddings": {"type": "DT_INT32"}, "T": {"type": "DT_FLOAT"}}}, {"name": "model/675/transpose", "op": "Transpose", "input": ["model/370/Pad", "model/675/transpose/perm"], "attr": {"T": {"type": "DT_FLOAT"}, "Tperm": {"type": "DT_INT32"}}}, {"name": "model/675/depthwise", "op": "DepthwiseConv2dNative", "input": ["model/675/transpose", "model/675/depthwise/ReadVariableOp"], "attr": {"padding": {"s": "VkFMSUQ="}, "explicit_paddings": {"list": {}}, "strides": {"list": {"i": ["1", "1", "1", "1"]}}, "dilations": {"list": {"i": ["1", "1", "1", "1"]}}, "data_format": {"s": "TkhXQw=="}, "T": {"type": "DT_FLOAT"}}}, {"name": "model/675/transpose_1", "op": "Transpose", "input": ["model/675/depthwise", "model/675/transpose_1/perm"], "attr": {"Tperm": {"type": "DT_INT32"}, "T": {"type": "DT_FLOAT"}}}, {"name": "model/675/BiasAdd", "op": "BiasAdd", "input": ["model/675/transpose_1", "model/675/BiasAdd/ReadVariableOp"], "attr": {"T": {"type": "DT_FLOAT"}, "data_format": {"s": "TkNIVw=="}}}, {"name": "model/373/Sigmoid", "op": "Sigmoid", "input": ["model/675/BiasAdd"], "attr": {"T": {"type": "DT_FLOAT"}}}, {"name": "model/374/mul", "op": "Mul", "input": ["model/675/BiasAdd", "model/373/Sigmoid"], "attr": {"T": {"type": "DT_FLOAT"}}}, {"name": "model/375/Mean", "op": "Mean", "input": ["model/374/mul", "model/375/Mean/reduction_indices"], "attr": {"T": {"type": "DT_FLOAT"}, "keep_dims": {"b": false}, "Tidx": {"type": "DT_INT32"}}}, {"name": "model/375_EXPAND1/ExpandDims", "op": "ExpandDims", "input": ["model/375/Mean", "model/375_EXPAND1/ExpandDims/dim"], "attr": {"T": {"type": "DT_FLOAT"}, "Tdim": {"type": "DT_INT32"}}}, {"name": "model/375_EXPAND2/ExpandDims", "op": "ExpandDims", "input": ["model/375_EXPAND1/ExpandDims", "model/375_EXPAND2/ExpandDims/dim"], "attr": {"Tdim": {"type": "DT_INT32"}, "T": {"type": "DT_FLOAT"}}}, {"name": "model/376/Conv2D", "op": "Conv2D", "input": ["model/375_EXPAND2/ExpandDims", "model/376/Conv2D/ReadVariableOp"], "device": "/device:CPU:0", "attr": {"padding": {"s": "VkFMSUQ="}, "data_format": {"s": "TkNIVw=="}, "use_cudnn_on_gpu": {"b": true}, "explicit_paddings": {"list": {}}, "T": {"type": "DT_FLOAT"}, "dilations": {"list": {"i": ["1", "1", "1", "1"]}}, "strides": {"list": {"i": ["1", "1", "1", "1"]}}}}, {"name": "model/376/BiasAdd", "op": "BiasAdd", "input": ["model/376/Conv2D", "model/376/BiasAdd/ReadVariableOp"], "attr": {"data_format": {"s": "TkNIVw=="}, "T": {"type": "DT_FLOAT"}}}, {"name": "model/377/Sigmoid", "op": "Sigmoid", "input": ["model/376/BiasAdd"], "attr": {"T": {"type": "DT_FLOAT"}}}, {"name": "model/378/mul", "op": "Mul", "input": ["model/376/BiasAdd", "model/377/Sigmoid"], "attr": {"T": {"type": "DT_FLOAT"}}}, {"name": "model/379/Conv2D", "op": "Conv2D", "input": ["model/378/mul", "model/379/Conv2D/ReadVariableOp"], "device": "/device:CPU:0", "attr": {"strides": {"list": {"i": ["1", "1", "1", "1"]}}, "use_cudnn_on_gpu": {"b": true}, "T": {"type": "DT_FLOAT"}, "dilations": {"list": {"i": ["1", "1", "1", "1"]}}, "data_format": {"s": "TkNIVw=="}, "explicit_paddings": {"list": {}}, "padding": {"s": "VkFMSUQ="}}}, {"name": "model/379/BiasAdd", "op": "BiasAdd", "input": ["model/379/Conv2D", "model/379/BiasAdd/ReadVariableOp"], "attr": {"data_format": {"s": "TkNIVw=="}, "T": {"type": "DT_FLOAT"}}}, {"name": "model/380/Sigmoid", "op": "Sigmoid", "input": ["model/379/BiasAdd"], "attr": {"T": {"type": "DT_FLOAT"}}}, {"name": "model/381/mul", "op": "Mul", "input": ["model/380/Sigmoid", "model/374/mul"], "attr": {"T": {"type": "DT_FLOAT"}}}, {"name": "model/678/Conv2D", "op": "Conv2D", "input": ["model/381/mul", "model/678/Conv2D/ReadVariableOp"], "device": "/device:CPU:0", "attr": {"dilations": {"list": {"i": ["1", "1", "1", "1"]}}, "strides": {"list": {"i": ["1", "1", "1", "1"]}}, "padding": {"s": "VkFMSUQ="}, "T": {"type": "DT_FLOAT"}, "data_format": {"s": "TkNIVw=="}, "use_cudnn_on_gpu": {"b": true}, "explicit_paddings": {"list": {}}}}, {"name": "model/678/BiasAdd", "op": "BiasAdd", "input": ["model/678/Conv2D", "model/678/BiasAdd/ReadVariableOp"], "attr": {"T": {"type": "DT_FLOAT"}, "data_format": {"s": "TkNIVw=="}}}, {"name": "model/681/Conv2D", "op": "Conv2D", "input": ["model/678/BiasAdd", "model/681/Conv2D/ReadVariableOp"], "device": "/device:CPU:0", "attr": {"dilations": {"list": {"i": ["1", "1", "1", "1"]}}, "use_cudnn_on_gpu": {"b": true}, "T": {"type": "DT_FLOAT"}, "padding": {"s": "VkFMSUQ="}, "data_format": {"s": "TkNIVw=="}, "explicit_paddings": {"list": {}}, "strides": {"list": {"i": ["1", "1", "1", "1"]}}}}, {"name": "model/681/BiasAdd", "op": "BiasAdd", "input": ["model/681/Conv2D", "model/681/BiasAdd/ReadVariableOp"], "attr": {"T": {"type": "DT_FLOAT"}, "data_format": {"s": "TkNIVw=="}}}, {"name": "model/386/Sigmoid", "op": "Sigmoid", "input": ["model/681/BiasAdd"], "attr": {"T": {"type": "DT_FLOAT"}}}, {"name": "model/387/mul", "op": "Mul", "input": ["model/681/BiasAdd", "model/386/Sigmoid"], "attr": {"T": {"type": "DT_FLOAT"}}}, {"name": "model/388/Pad", "op": "Pad", "input": ["model/387/mul", "model/388/Pad/paddings"], "attr": {"T": {"type": "DT_FLOAT"}, "Tpaddings": {"type": "DT_INT32"}}}, {"name": "model/684/transpose", "op": "Transpose", "input": ["model/388/Pad", "model/684/transpose/perm"], "attr": {"Tperm": {"type": "DT_INT32"}, "T": {"type": "DT_FLOAT"}}}, {"name": "model/684/depthwise", "op": "DepthwiseConv2dNative", "input": ["model/684/transpose", "model/684/depthwise/ReadVariableOp"], "attr": {"padding": {"s": "VkFMSUQ="}, "dilations": {"list": {"i": ["1", "1", "1", "1"]}}, "explicit_paddings": {"list": {}}, "data_format": {"s": "TkhXQw=="}, "T": {"type": "DT_FLOAT"}, "strides": {"list": {"i": ["1", "2", "2", "1"]}}}}, {"name": "model/684/transpose_1", "op": "Transpose", "input": ["model/684/depthwise", "model/684/transpose_1/perm"], "attr": {"T": {"type": "DT_FLOAT"}, "Tperm": {"type": "DT_INT32"}}}, {"name": "model/684/BiasAdd", "op": "BiasAdd", "input": ["model/684/transpose_1", "model/684/BiasAdd/ReadVariableOp"], "attr": {"data_format": {"s": "TkNIVw=="}, "T": {"type": "DT_FLOAT"}}}, {"name": "model/391/Sigmoid", "op": "Sigmoid", "input": ["model/684/BiasAdd"], "attr": {"T": {"type": "DT_FLOAT"}}}, {"name": "model/392/mul", "op": "Mul", "input": ["model/684/BiasAdd", "model/391/Sigmoid"], "attr": {"T": {"type": "DT_FLOAT"}}}, {"name": "model/393/Mean", "op": "Mean", "input": ["model/392/mul", "model/393/Mean/reduction_indices"], "attr": {"keep_dims": {"b": false}, "T": {"type": "DT_FLOAT"}, "Tidx": {"type": "DT_INT32"}}}, {"name": "model/393_EXPAND1/ExpandDims", "op": "ExpandDims", "input": ["model/393/Mean", "model/393_EXPAND1/ExpandDims/dim"], "attr": {"T": {"type": "DT_FLOAT"}, "Tdim": {"type": "DT_INT32"}}}, {"name": "model/393_EXPAND2/ExpandDims", "op": "ExpandDims", "input": ["model/393_EXPAND1/ExpandDims", "model/393_EXPAND2/ExpandDims/dim"], "attr": {"Tdim": {"type": "DT_INT32"}, "T": {"type": "DT_FLOAT"}}}, {"name": "model/394/Conv2D", "op": "Conv2D", "input": ["model/393_EXPAND2/ExpandDims", "model/394/Conv2D/ReadVariableOp"], "device": "/device:CPU:0", "attr": {"strides": {"list": {"i": ["1", "1", "1", "1"]}}, "dilations": {"list": {"i": ["1", "1", "1", "1"]}}, "T": {"type": "DT_FLOAT"}, "explicit_paddings": {"list": {}}, "padding": {"s": "VkFMSUQ="}, "data_format": {"s": "TkNIVw=="}, "use_cudnn_on_gpu": {"b": true}}}, {"name": "model/394/BiasAdd", "op": "BiasAdd", "input": ["model/394/Conv2D", "model/394/BiasAdd/ReadVariableOp"], "attr": {"T": {"type": "DT_FLOAT"}, "data_format": {"s": "TkNIVw=="}}}, {"name": "model/395/Sigmoid", "op": "Sigmoid", "input": ["model/394/BiasAdd"], "attr": {"T": {"type": "DT_FLOAT"}}}, {"name": "model/396/mul", "op": "Mul", "input": ["model/394/BiasAdd", "model/395/Sigmoid"], "attr": {"T": {"type": "DT_FLOAT"}}}, {"name": "model/397/Conv2D", "op": "Conv2D", "input": ["model/396/mul", "model/397/Conv2D/ReadVariableOp"], "device": "/device:CPU:0", "attr": {"strides": {"list": {"i": ["1", "1", "1", "1"]}}, "explicit_paddings": {"list": {}}, "data_format": {"s": "TkNIVw=="}, "padding": {"s": "VkFMSUQ="}, "T": {"type": "DT_FLOAT"}, "use_cudnn_on_gpu": {"b": true}, "dilations": {"list": {"i": ["1", "1", "1", "1"]}}}}, {"name": "model/397/BiasAdd", "op": "BiasAdd", "input": ["model/397/Conv2D", "model/397/BiasAdd/ReadVariableOp"], "attr": {"data_format": {"s": "TkNIVw=="}, "T": {"type": "DT_FLOAT"}}}, {"name": "model/398/Sigmoid", "op": "Sigmoid", "input": ["model/397/BiasAdd"], "attr": {"T": {"type": "DT_FLOAT"}}}, {"name": "model/399/mul", "op": "Mul", "input": ["model/398/Sigmoid", "model/392/mul"], "attr": {"T": {"type": "DT_FLOAT"}}}, {"name": "model/687/Conv2D", "op": "Conv2D", "input": ["model/399/mul", "model/687/Conv2D/ReadVariableOp"], "device": "/device:CPU:0", "attr": {"explicit_paddings": {"list": {}}, "T": {"type": "DT_FLOAT"}, "dilations": {"list": {"i": ["1", "1", "1", "1"]}}, "data_format": {"s": "TkNIVw=="}, "use_cudnn_on_gpu": {"b": true}, "strides": {"list": {"i": ["1", "1", "1", "1"]}}, "padding": {"s": "VkFMSUQ="}}}, {"name": "model/687/BiasAdd", "op": "BiasAdd", "input": ["model/687/Conv2D", "model/687/BiasAdd/ReadVariableOp"], "attr": {"T": {"type": "DT_FLOAT"}, "data_format": {"s": "TkNIVw=="}}}, {"name": "model/690/Conv2D", "op": "Conv2D", "input": ["model/687/BiasAdd", "model/690/Conv2D/ReadVariableOp"], "device": "/device:CPU:0", "attr": {"dilations": {"list": {"i": ["1", "1", "1", "1"]}}, "strides": {"list": {"i": ["1", "1", "1", "1"]}}, "use_cudnn_on_gpu": {"b": true}, "T": {"type": "DT_FLOAT"}, "explicit_paddings": {"list": {}}, "padding": {"s": "VkFMSUQ="}, "data_format": {"s": "TkNIVw=="}}}, {"name": "model/690/BiasAdd", "op": "BiasAdd", "input": ["model/690/Conv2D", "model/690/BiasAdd/ReadVariableOp"], "attr": {"T": {"type": "DT_FLOAT"}, "data_format": {"s": "TkNIVw=="}}}, {"name": "model/404/Sigmoid", "op": "Sigmoid", "input": ["model/690/BiasAdd"], "attr": {"T": {"type": "DT_FLOAT"}}}, {"name": "model/405/mul", "op": "Mul", "input": ["model/690/BiasAdd", "model/404/Sigmoid"], "attr": {"T": {"type": "DT_FLOAT"}}}, {"name": "model/406/Pad", "op": "Pad", "input": ["model/405/mul", "model/406/Pad/paddings"], "attr": {"Tpaddings": {"type": "DT_INT32"}, "T": {"type": "DT_FLOAT"}}}, {"name": "model/693/transpose", "op": "Transpose", "input": ["model/406/Pad", "model/693/transpose/perm"], "attr": {"T": {"type": "DT_FLOAT"}, "Tperm": {"type": "DT_INT32"}}}, {"name": "model/693/depthwise", "op": "DepthwiseConv2dNative", "input": ["model/693/transpose", "model/693/depthwise/ReadVariableOp"], "attr": {"dilations": {"list": {"i": ["1", "1", "1", "1"]}}, "explicit_paddings": {"list": {}}, "T": {"type": "DT_FLOAT"}, "strides": {"list": {"i": ["1", "1", "1", "1"]}}, "padding": {"s": "VkFMSUQ="}, "data_format": {"s": "TkhXQw=="}}}, {"name": "model/693/transpose_1", "op": "Transpose", "input": ["model/693/depthwise", "model/693/transpose_1/perm"], "attr": {"T": {"type": "DT_FLOAT"}, "Tperm": {"type": "DT_INT32"}}}, {"name": "model/693/BiasAdd", "op": "BiasAdd", "input": ["model/693/transpose_1", "model/693/BiasAdd/ReadVariableOp"], "attr": {"T": {"type": "DT_FLOAT"}, "data_format": {"s": "TkNIVw=="}}}, {"name": "model/409/Sigmoid", "op": "Sigmoid", "input": ["model/693/BiasAdd"], "attr": {"T": {"type": "DT_FLOAT"}}}, {"name": "model/410/mul", "op": "Mul", "input": ["model/693/BiasAdd", "model/409/Sigmoid"], "attr": {"T": {"type": "DT_FLOAT"}}}, {"name": "model/411/Mean", "op": "Mean", "input": ["model/410/mul", "model/411/Mean/reduction_indices"], "attr": {"Tidx": {"type": "DT_INT32"}, "keep_dims": {"b": false}, "T": {"type": "DT_FLOAT"}}}, {"name": "model/411_EXPAND1/ExpandDims", "op": "ExpandDims", "input": ["model/411/Mean", "model/411_EXPAND1/ExpandDims/dim"], "attr": {"T": {"type": "DT_FLOAT"}, "Tdim": {"type": "DT_INT32"}}}, {"name": "model/411_EXPAND2/ExpandDims", "op": "ExpandDims", "input": ["model/411_EXPAND1/ExpandDims", "model/411_EXPAND2/ExpandDims/dim"], "attr": {"Tdim": {"type": "DT_INT32"}, "T": {"type": "DT_FLOAT"}}}, {"name": "model/412/Conv2D", "op": "Conv2D", "input": ["model/411_EXPAND2/ExpandDims", "model/412/Conv2D/ReadVariableOp"], "device": "/device:CPU:0", "attr": {"explicit_paddings": {"list": {}}, "padding": {"s": "VkFMSUQ="}, "T": {"type": "DT_FLOAT"}, "use_cudnn_on_gpu": {"b": true}, "strides": {"list": {"i": ["1", "1", "1", "1"]}}, "data_format": {"s": "TkNIVw=="}, "dilations": {"list": {"i": ["1", "1", "1", "1"]}}}}, {"name": "model/412/BiasAdd", "op": "BiasAdd", "input": ["model/412/Conv2D", "model/412/BiasAdd/ReadVariableOp"], "attr": {"data_format": {"s": "TkNIVw=="}, "T": {"type": "DT_FLOAT"}}}, {"name": "model/413/Sigmoid", "op": "Sigmoid", "input": ["model/412/BiasAdd"], "attr": {"T": {"type": "DT_FLOAT"}}}, {"name": "model/414/mul", "op": "Mul", "input": ["model/412/BiasAdd", "model/413/Sigmoid"], "attr": {"T": {"type": "DT_FLOAT"}}}, {"name": "model/415/Conv2D", "op": "Conv2D", "input": ["model/414/mul", "model/415/Conv2D/ReadVariableOp"], "device": "/device:CPU:0", "attr": {"data_format": {"s": "TkNIVw=="}, "dilations": {"list": {"i": ["1", "1", "1", "1"]}}, "strides": {"list": {"i": ["1", "1", "1", "1"]}}, "padding": {"s": "VkFMSUQ="}, "explicit_paddings": {"list": {}}, "T": {"type": "DT_FLOAT"}, "use_cudnn_on_gpu": {"b": true}}}, {"name": "model/415/BiasAdd", "op": "BiasAdd", "input": ["model/415/Conv2D", "model/415/BiasAdd/ReadVariableOp"], "attr": {"data_format": {"s": "TkNIVw=="}, "T": {"type": "DT_FLOAT"}}}, {"name": "model/416/Sigmoid", "op": "Sigmoid", "input": ["model/415/BiasAdd"], "attr": {"T": {"type": "DT_FLOAT"}}}, {"name": "model/417/mul", "op": "Mul", "input": ["model/416/Sigmoid", "model/410/mul"], "attr": {"T": {"type": "DT_FLOAT"}}}, {"name": "model/696/Conv2D", "op": "Conv2D", "input": ["model/417/mul", "model/696/Conv2D/ReadVariableOp"], "device": "/device:CPU:0", "attr": {"data_format": {"s": "TkNIVw=="}, "explicit_paddings": {"list": {}}, "T": {"type": "DT_FLOAT"}, "padding": {"s": "VkFMSUQ="}, "use_cudnn_on_gpu": {"b": true}, "strides": {"list": {"i": ["1", "1", "1", "1"]}}, "dilations": {"list": {"i": ["1", "1", "1", "1"]}}}}, {"name": "model/696/BiasAdd", "op": "BiasAdd", "input": ["model/696/Conv2D", "model/696/BiasAdd/ReadVariableOp"], "attr": {"T": {"type": "DT_FLOAT"}, "data_format": {"s": "TkNIVw=="}}}, {"name": "model/420/add", "op": "AddV2", "input": ["model/696/BiasAdd", "model/687/BiasAdd"], "attr": {"T": {"type": "DT_FLOAT"}}}, {"name": "model/699/Conv2D", "op": "Conv2D", "input": ["model/420/add", "model/699/Conv2D/ReadVariableOp"], "device": "/device:CPU:0", "attr": {"data_format": {"s": "TkNIVw=="}, "T": {"type": "DT_FLOAT"}, "dilations": {"list": {"i": ["1", "1", "1", "1"]}}, "use_cudnn_on_gpu": {"b": true}, "explicit_paddings": {"list": {}}, "padding": {"s": "VkFMSUQ="}, "strides": {"list": {"i": ["1", "1", "1", "1"]}}}}, {"name": "model/699/BiasAdd", "op": "BiasAdd", "input": ["model/699/Conv2D", "model/699/BiasAdd/ReadVariableOp"], "attr": {"T": {"type": "DT_FLOAT"}, "data_format": {"s": "TkNIVw=="}}}, {"name": "model/423/Sigmoid", "op": "Sigmoid", "input": ["model/699/BiasAdd"], "attr": {"T": {"type": "DT_FLOAT"}}}, {"name": "model/424/mul", "op": "Mul", "input": ["model/699/BiasAdd", "model/423/Sigmoid"], "attr": {"T": {"type": "DT_FLOAT"}}}, {"name": "model/425/Pad", "op": "Pad", "input": ["model/424/mul", "model/425/Pad/paddings"], "attr": {"Tpaddings": {"type": "DT_INT32"}, "T": {"type": "DT_FLOAT"}}}, {"name": "model/702/transpose", "op": "Transpose", "input": ["model/425/Pad", "model/702/transpose/perm"], "attr": {"Tperm": {"type": "DT_INT32"}, "T": {"type": "DT_FLOAT"}}}, {"name": "model/702/depthwise", "op": "DepthwiseConv2dNative", "input": ["model/702/transpose", "model/702/depthwise/ReadVariableOp"], "attr": {"strides": {"list": {"i": ["1", "2", "2", "1"]}}, "T": {"type": "DT_FLOAT"}, "data_format": {"s": "TkhXQw=="}, "explicit_paddings": {"list": {}}, "dilations": {"list": {"i": ["1", "1", "1", "1"]}}, "padding": {"s": "VkFMSUQ="}}}, {"name": "model/702/transpose_1", "op": "Transpose", "input": ["model/702/depthwise", "model/702/transpose_1/perm"], "attr": {"Tperm": {"type": "DT_INT32"}, "T": {"type": "DT_FLOAT"}}}, {"name": "model/702/BiasAdd", "op": "BiasAdd", "input": ["model/702/transpose_1", "model/702/BiasAdd/ReadVariableOp"], "attr": {"data_format": {"s": "TkNIVw=="}, "T": {"type": "DT_FLOAT"}}}, {"name": "model/428/Sigmoid", "op": "Sigmoid", "input": ["model/702/BiasAdd"], "attr": {"T": {"type": "DT_FLOAT"}}}, {"name": "model/429/mul", "op": "Mul", "input": ["model/702/BiasAdd", "model/428/Sigmoid"], "attr": {"T": {"type": "DT_FLOAT"}}}, {"name": "model/430/Mean", "op": "Mean", "input": ["model/429/mul", "model/430/Mean/reduction_indices"], "attr": {"Tidx": {"type": "DT_INT32"}, "keep_dims": {"b": false}, "T": {"type": "DT_FLOAT"}}}, {"name": "model/430_EXPAND1/ExpandDims", "op": "ExpandDims", "input": ["model/430/Mean", "model/430_EXPAND1/ExpandDims/dim"], "attr": {"Tdim": {"type": "DT_INT32"}, "T": {"type": "DT_FLOAT"}}}, {"name": "model/430_EXPAND2/ExpandDims", "op": "ExpandDims", "input": ["model/430_EXPAND1/ExpandDims", "model/430_EXPAND2/ExpandDims/dim"], "attr": {"Tdim": {"type": "DT_INT32"}, "T": {"type": "DT_FLOAT"}}}, {"name": "model/431/Conv2D", "op": "Conv2D", "input": ["model/430_EXPAND2/ExpandDims", "model/431/Conv2D/ReadVariableOp"], "device": "/device:CPU:0", "attr": {"T": {"type": "DT_FLOAT"}, "use_cudnn_on_gpu": {"b": true}, "explicit_paddings": {"list": {}}, "dilations": {"list": {"i": ["1", "1", "1", "1"]}}, "strides": {"list": {"i": ["1", "1", "1", "1"]}}, "data_format": {"s": "TkNIVw=="}, "padding": {"s": "VkFMSUQ="}}}, {"name": "model/431/BiasAdd", "op": "BiasAdd", "input": ["model/431/Conv2D", "model/431/BiasAdd/ReadVariableOp"], "attr": {"data_format": {"s": "TkNIVw=="}, "T": {"type": "DT_FLOAT"}}}, {"name": "model/432/Sigmoid", "op": "Sigmoid", "input": ["model/431/BiasAdd"], "attr": {"T": {"type": "DT_FLOAT"}}}, {"name": "model/433/mul", "op": "Mul", "input": ["model/431/BiasAdd", "model/432/Sigmoid"], "attr": {"T": {"type": "DT_FLOAT"}}}, {"name": "model/434/Conv2D", "op": "Conv2D", "input": ["model/433/mul", "model/434/Conv2D/ReadVariableOp"], "device": "/device:CPU:0", "attr": {"dilations": {"list": {"i": ["1", "1", "1", "1"]}}, "T": {"type": "DT_FLOAT"}, "strides": {"list": {"i": ["1", "1", "1", "1"]}}, "padding": {"s": "VkFMSUQ="}, "explicit_paddings": {"list": {}}, "data_format": {"s": "TkNIVw=="}, "use_cudnn_on_gpu": {"b": true}}}, {"name": "model/434/BiasAdd", "op": "BiasAdd", "input": ["model/434/Conv2D", "model/434/BiasAdd/ReadVariableOp"], "attr": {"T": {"type": "DT_FLOAT"}, "data_format": {"s": "TkNIVw=="}}}, {"name": "model/435/Sigmoid", "op": "Sigmoid", "input": ["model/434/BiasAdd"], "attr": {"T": {"type": "DT_FLOAT"}}}, {"name": "model/436/mul", "op": "Mul", "input": ["model/435/Sigmoid", "model/429/mul"], "attr": {"T": {"type": "DT_FLOAT"}}}, {"name": "model/705/Conv2D", "op": "Conv2D", "input": ["model/436/mul", "model/705/Conv2D/ReadVariableOp"], "device": "/device:CPU:0", "attr": {"explicit_paddings": {"list": {}}, "data_format": {"s": "TkNIVw=="}, "dilations": {"list": {"i": ["1", "1", "1", "1"]}}, "strides": {"list": {"i": ["1", "1", "1", "1"]}}, "padding": {"s": "VkFMSUQ="}, "T": {"type": "DT_FLOAT"}, "use_cudnn_on_gpu": {"b": true}}}, {"name": "model/705/BiasAdd", "op": "BiasAdd", "input": ["model/705/Conv2D", "model/705/BiasAdd/ReadVariableOp"], "attr": {"data_format": {"s": "TkNIVw=="}, "T": {"type": "DT_FLOAT"}}}, {"name": "model/708/Conv2D", "op": "Conv2D", "input": ["model/705/BiasAdd", "model/708/Conv2D/ReadVariableOp"], "device": "/device:CPU:0", "attr": {"explicit_paddings": {"list": {}}, "use_cudnn_on_gpu": {"b": true}, "T": {"type": "DT_FLOAT"}, "data_format": {"s": "TkNIVw=="}, "dilations": {"list": {"i": ["1", "1", "1", "1"]}}, "strides": {"list": {"i": ["1", "1", "1", "1"]}}, "padding": {"s": "VkFMSUQ="}}}, {"name": "model/708/BiasAdd", "op": "BiasAdd", "input": ["model/708/Conv2D", "model/708/BiasAdd/ReadVariableOp"], "attr": {"data_format": {"s": "TkNIVw=="}, "T": {"type": "DT_FLOAT"}}}, {"name": "model/441/Sigmoid", "op": "Sigmoid", "input": ["model/708/BiasAdd"], "attr": {"T": {"type": "DT_FLOAT"}}}, {"name": "model/442/mul", "op": "Mul", "input": ["model/708/BiasAdd", "model/441/Sigmoid"], "attr": {"T": {"type": "DT_FLOAT"}}}, {"name": "model/443/Pad", "op": "Pad", "input": ["model/442/mul", "model/443/Pad/paddings"], "attr": {"T": {"type": "DT_FLOAT"}, "Tpaddings": {"type": "DT_INT32"}}}, {"name": "model/711/transpose", "op": "Transpose", "input": ["model/443/Pad", "model/711/transpose/perm"], "attr": {"T": {"type": "DT_FLOAT"}, "Tperm": {"type": "DT_INT32"}}}, {"name": "model/711/depthwise", "op": "DepthwiseConv2dNative", "input": ["model/711/transpose", "model/711/depthwise/ReadVariableOp"], "attr": {"T": {"type": "DT_FLOAT"}, "explicit_paddings": {"list": {}}, "strides": {"list": {"i": ["1", "1", "1", "1"]}}, "padding": {"s": "VkFMSUQ="}, "dilations": {"list": {"i": ["1", "1", "1", "1"]}}, "data_format": {"s": "TkhXQw=="}}}, {"name": "model/711/transpose_1", "op": "Transpose", "input": ["model/711/depthwise", "model/711/transpose_1/perm"], "attr": {"Tperm": {"type": "DT_INT32"}, "T": {"type": "DT_FLOAT"}}}, {"name": "model/711/BiasAdd", "op": "BiasAdd", "input": ["model/711/transpose_1", "model/711/BiasAdd/ReadVariableOp"], "attr": {"data_format": {"s": "TkNIVw=="}, "T": {"type": "DT_FLOAT"}}}, {"name": "model/446/Sigmoid", "op": "Sigmoid", "input": ["model/711/BiasAdd"], "attr": {"T": {"type": "DT_FLOAT"}}}, {"name": "model/447/mul", "op": "Mul", "input": ["model/711/BiasAdd", "model/446/Sigmoid"], "attr": {"T": {"type": "DT_FLOAT"}}}, {"name": "model/448/Mean", "op": "Mean", "input": ["model/447/mul", "model/448/Mean/reduction_indices"], "attr": {"T": {"type": "DT_FLOAT"}, "keep_dims": {"b": false}, "Tidx": {"type": "DT_INT32"}}}, {"name": "model/448_EXPAND1/ExpandDims", "op": "ExpandDims", "input": ["model/448/Mean", "model/448_EXPAND1/ExpandDims/dim"], "attr": {"T": {"type": "DT_FLOAT"}, "Tdim": {"type": "DT_INT32"}}}, {"name": "model/448_EXPAND2/ExpandDims", "op": "ExpandDims", "input": ["model/448_EXPAND1/ExpandDims", "model/448_EXPAND2/ExpandDims/dim"], "attr": {"T": {"type": "DT_FLOAT"}, "Tdim": {"type": "DT_INT32"}}}, {"name": "model/449/Conv2D", "op": "Conv2D", "input": ["model/448_EXPAND2/ExpandDims", "model/449/Conv2D/ReadVariableOp"], "device": "/device:CPU:0", "attr": {"strides": {"list": {"i": ["1", "1", "1", "1"]}}, "use_cudnn_on_gpu": {"b": true}, "padding": {"s": "VkFMSUQ="}, "explicit_paddings": {"list": {}}, "dilations": {"list": {"i": ["1", "1", "1", "1"]}}, "T": {"type": "DT_FLOAT"}, "data_format": {"s": "TkNIVw=="}}}, {"name": "model/449/BiasAdd", "op": "BiasAdd", "input": ["model/449/Conv2D", "model/449/BiasAdd/ReadVariableOp"], "attr": {"data_format": {"s": "TkNIVw=="}, "T": {"type": "DT_FLOAT"}}}, {"name": "model/450/Sigmoid", "op": "Sigmoid", "input": ["model/449/BiasAdd"], "attr": {"T": {"type": "DT_FLOAT"}}}, {"name": "model/451/mul", "op": "Mul", "input": ["model/449/BiasAdd", "model/450/Sigmoid"], "attr": {"T": {"type": "DT_FLOAT"}}}, {"name": "model/452/Conv2D", "op": "Conv2D", "input": ["model/451/mul", "model/452/Conv2D/ReadVariableOp"], "device": "/device:CPU:0", "attr": {"dilations": {"list": {"i": ["1", "1", "1", "1"]}}, "T": {"type": "DT_FLOAT"}, "strides": {"list": {"i": ["1", "1", "1", "1"]}}, "data_format": {"s": "TkNIVw=="}, "explicit_paddings": {"list": {}}, "use_cudnn_on_gpu": {"b": true}, "padding": {"s": "VkFMSUQ="}}}, {"name": "model/452/BiasAdd", "op": "BiasAdd", "input": ["model/452/Conv2D", "model/452/BiasAdd/ReadVariableOp"], "attr": {"T": {"type": "DT_FLOAT"}, "data_format": {"s": "TkNIVw=="}}}, {"name": "model/453/Sigmoid", "op": "Sigmoid", "input": ["model/452/BiasAdd"], "attr": {"T": {"type": "DT_FLOAT"}}}, {"name": "model/454/mul", "op": "Mul", "input": ["model/453/Sigmoid", "model/447/mul"], "attr": {"T": {"type": "DT_FLOAT"}}}, {"name": "model/714/Conv2D", "op": "Conv2D", "input": ["model/454/mul", "model/714/Conv2D/ReadVariableOp"], "device": "/device:CPU:0", "attr": {"padding": {"s": "VkFMSUQ="}, "strides": {"list": {"i": ["1", "1", "1", "1"]}}, "dilations": {"list": {"i": ["1", "1", "1", "1"]}}, "explicit_paddings": {"list": {}}, "T": {"type": "DT_FLOAT"}, "data_format": {"s": "TkNIVw=="}, "use_cudnn_on_gpu": {"b": true}}}, {"name": "model/714/BiasAdd", "op": "BiasAdd", "input": ["model/714/Conv2D", "model/714/BiasAdd/ReadVariableOp"], "attr": {"data_format": {"s": "TkNIVw=="}, "T": {"type": "DT_FLOAT"}}}, {"name": "model/457/add", "op": "AddV2", "input": ["model/714/BiasAdd", "model/705/BiasAdd"], "attr": {"T": {"type": "DT_FLOAT"}}}, {"name": "model/717/Conv2D", "op": "Conv2D", "input": ["model/457/add", "model/717/Conv2D/ReadVariableOp"], "device": "/device:CPU:0", "attr": {"dilations": {"list": {"i": ["1", "1", "1", "1"]}}, "data_format": {"s": "TkNIVw=="}, "padding": {"s": "VkFMSUQ="}, "use_cudnn_on_gpu": {"b": true}, "T": {"type": "DT_FLOAT"}, "explicit_paddings": {"list": {}}, "strides": {"list": {"i": ["1", "1", "1", "1"]}}}}, {"name": "model/717/BiasAdd", "op": "BiasAdd", "input": ["model/717/Conv2D", "model/717/BiasAdd/ReadVariableOp"], "attr": {"T": {"type": "DT_FLOAT"}, "data_format": {"s": "TkNIVw=="}}}, {"name": "model/460/Sigmoid", "op": "Sigmoid", "input": ["model/717/BiasAdd"], "attr": {"T": {"type": "DT_FLOAT"}}}, {"name": "model/461/mul", "op": "Mul", "input": ["model/717/BiasAdd", "model/460/Sigmoid"], "attr": {"T": {"type": "DT_FLOAT"}}}, {"name": "model/462/Pad", "op": "Pad", "input": ["model/461/mul", "model/462/Pad/paddings"], "attr": {"T": {"type": "DT_FLOAT"}, "Tpaddings": {"type": "DT_INT32"}}}, {"name": "model/720/transpose", "op": "Transpose", "input": ["model/462/Pad", "model/720/transpose/perm"], "attr": {"Tperm": {"type": "DT_INT32"}, "T": {"type": "DT_FLOAT"}}}, {"name": "model/720/depthwise", "op": "DepthwiseConv2dNative", "input": ["model/720/transpose", "model/720/depthwise/ReadVariableOp"], "attr": {"explicit_paddings": {"list": {}}, "data_format": {"s": "TkhXQw=="}, "strides": {"list": {"i": ["1", "2", "2", "1"]}}, "padding": {"s": "VkFMSUQ="}, "dilations": {"list": {"i": ["1", "1", "1", "1"]}}, "T": {"type": "DT_FLOAT"}}}, {"name": "model/720/transpose_1", "op": "Transpose", "input": ["model/720/depthwise", "model/720/transpose_1/perm"], "attr": {"Tperm": {"type": "DT_INT32"}, "T": {"type": "DT_FLOAT"}}}, {"name": "model/720/BiasAdd", "op": "BiasAdd", "input": ["model/720/transpose_1", "model/720/BiasAdd/ReadVariableOp"], "attr": {"data_format": {"s": "TkNIVw=="}, "T": {"type": "DT_FLOAT"}}}, {"name": "model/465/Sigmoid", "op": "Sigmoid", "input": ["model/720/BiasAdd"], "attr": {"T": {"type": "DT_FLOAT"}}}, {"name": "model/466/mul", "op": "Mul", "input": ["model/720/BiasAdd", "model/465/Sigmoid"], "attr": {"T": {"type": "DT_FLOAT"}}}, {"name": "model/467/Mean", "op": "Mean", "input": ["model/466/mul", "model/467/Mean/reduction_indices"], "attr": {"T": {"type": "DT_FLOAT"}, "keep_dims": {"b": false}, "Tidx": {"type": "DT_INT32"}}}, {"name": "model/467_EXPAND1/ExpandDims", "op": "ExpandDims", "input": ["model/467/Mean", "model/467_EXPAND1/ExpandDims/dim"], "attr": {"Tdim": {"type": "DT_INT32"}, "T": {"type": "DT_FLOAT"}}}, {"name": "model/467_EXPAND2/ExpandDims", "op": "ExpandDims", "input": ["model/467_EXPAND1/ExpandDims", "model/467_EXPAND2/ExpandDims/dim"], "attr": {"Tdim": {"type": "DT_INT32"}, "T": {"type": "DT_FLOAT"}}}, {"name": "model/468/Conv2D", "op": "Conv2D", "input": ["model/467_EXPAND2/ExpandDims", "model/468/Conv2D/ReadVariableOp"], "device": "/device:CPU:0", "attr": {"dilations": {"list": {"i": ["1", "1", "1", "1"]}}, "explicit_paddings": {"list": {}}, "use_cudnn_on_gpu": {"b": true}, "strides": {"list": {"i": ["1", "1", "1", "1"]}}, "T": {"type": "DT_FLOAT"}, "padding": {"s": "VkFMSUQ="}, "data_format": {"s": "TkNIVw=="}}}, {"name": "model/468/BiasAdd", "op": "BiasAdd", "input": ["model/468/Conv2D", "model/468/BiasAdd/ReadVariableOp"], "attr": {"data_format": {"s": "TkNIVw=="}, "T": {"type": "DT_FLOAT"}}}, {"name": "model/469/Sigmoid", "op": "Sigmoid", "input": ["model/468/BiasAdd"], "attr": {"T": {"type": "DT_FLOAT"}}}, {"name": "model/470/mul", "op": "Mul", "input": ["model/468/BiasAdd", "model/469/Sigmoid"], "attr": {"T": {"type": "DT_FLOAT"}}}, {"name": "model/471/Conv2D", "op": "Conv2D", "input": ["model/470/mul", "model/471/Conv2D/ReadVariableOp"], "device": "/device:CPU:0", "attr": {"T": {"type": "DT_FLOAT"}, "explicit_paddings": {"list": {}}, "use_cudnn_on_gpu": {"b": true}, "dilations": {"list": {"i": ["1", "1", "1", "1"]}}, "strides": {"list": {"i": ["1", "1", "1", "1"]}}, "data_format": {"s": "TkNIVw=="}, "padding": {"s": "VkFMSUQ="}}}, {"name": "model/471/BiasAdd", "op": "BiasAdd", "input": ["model/471/Conv2D", "model/471/BiasAdd/ReadVariableOp"], "attr": {"T": {"type": "DT_FLOAT"}, "data_format": {"s": "TkNIVw=="}}}, {"name": "model/472/Sigmoid", "op": "Sigmoid", "input": ["model/471/BiasAdd"], "attr": {"T": {"type": "DT_FLOAT"}}}, {"name": "model/473/mul", "op": "Mul", "input": ["model/472/Sigmoid", "model/466/mul"], "attr": {"T": {"type": "DT_FLOAT"}}}, {"name": "model/723/Conv2D", "op": "Conv2D", "input": ["model/473/mul", "model/723/Conv2D/ReadVariableOp"], "device": "/device:CPU:0", "attr": {"data_format": {"s": "TkNIVw=="}, "strides": {"list": {"i": ["1", "1", "1", "1"]}}, "dilations": {"list": {"i": ["1", "1", "1", "1"]}}, "explicit_paddings": {"list": {}}, "padding": {"s": "VkFMSUQ="}, "T": {"type": "DT_FLOAT"}, "use_cudnn_on_gpu": {"b": true}}}, {"name": "model/723/BiasAdd", "op": "BiasAdd", "input": ["model/723/Conv2D", "model/723/BiasAdd/ReadVariableOp"], "attr": {"T": {"type": "DT_FLOAT"}, "data_format": {"s": "TkNIVw=="}}}, {"name": "model/726/Conv2D", "op": "Conv2D", "input": ["model/723/BiasAdd", "model/726/Conv2D/ReadVariableOp"], "device": "/device:CPU:0", "attr": {"dilations": {"list": {"i": ["1", "1", "1", "1"]}}, "T": {"type": "DT_FLOAT"}, "strides": {"list": {"i": ["1", "1", "1", "1"]}}, "use_cudnn_on_gpu": {"b": true}, "data_format": {"s": "TkNIVw=="}, "explicit_paddings": {"list": {}}, "padding": {"s": "VkFMSUQ="}}}, {"name": "model/726/BiasAdd", "op": "BiasAdd", "input": ["model/726/Conv2D", "model/726/BiasAdd/ReadVariableOp"], "attr": {"data_format": {"s": "TkNIVw=="}, "T": {"type": "DT_FLOAT"}}}, {"name": "model/478/Sigmoid", "op": "Sigmoid", "input": ["model/726/BiasAdd"], "attr": {"T": {"type": "DT_FLOAT"}}}, {"name": "model/479/mul", "op": "Mul", "input": ["model/726/BiasAdd", "model/478/Sigmoid"], "attr": {"T": {"type": "DT_FLOAT"}}}, {"name": "model/480/Pad", "op": "Pad", "input": ["model/479/mul", "model/480/Pad/paddings"], "attr": {"T": {"type": "DT_FLOAT"}, "Tpaddings": {"type": "DT_INT32"}}}, {"name": "model/729/transpose", "op": "Transpose", "input": ["model/480/Pad", "model/729/transpose/perm"], "attr": {"T": {"type": "DT_FLOAT"}, "Tperm": {"type": "DT_INT32"}}}, {"name": "model/729/depthwise", "op": "DepthwiseConv2dNative", "input": ["model/729/transpose", "model/729/depthwise/ReadVariableOp"], "attr": {"padding": {"s": "VkFMSUQ="}, "data_format": {"s": "TkhXQw=="}, "dilations": {"list": {"i": ["1", "1", "1", "1"]}}, "strides": {"list": {"i": ["1", "1", "1", "1"]}}, "explicit_paddings": {"list": {}}, "T": {"type": "DT_FLOAT"}}}, {"name": "model/729/transpose_1", "op": "Transpose", "input": ["model/729/depthwise", "model/729/transpose_1/perm"], "attr": {"T": {"type": "DT_FLOAT"}, "Tperm": {"type": "DT_INT32"}}}, {"name": "model/729/BiasAdd", "op": "BiasAdd", "input": ["model/729/transpose_1", "model/729/BiasAdd/ReadVariableOp"], "attr": {"T": {"type": "DT_FLOAT"}, "data_format": {"s": "TkNIVw=="}}}, {"name": "model/483/Sigmoid", "op": "Sigmoid", "input": ["model/729/BiasAdd"], "attr": {"T": {"type": "DT_FLOAT"}}}, {"name": "model/484/mul", "op": "Mul", "input": ["model/729/BiasAdd", "model/483/Sigmoid"], "attr": {"T": {"type": "DT_FLOAT"}}}, {"name": "model/485/Mean", "op": "Mean", "input": ["model/484/mul", "model/485/Mean/reduction_indices"], "attr": {"T": {"type": "DT_FLOAT"}, "keep_dims": {"b": false}, "Tidx": {"type": "DT_INT32"}}}, {"name": "model/485_EXPAND1/ExpandDims", "op": "ExpandDims", "input": ["model/485/Mean", "model/485_EXPAND1/ExpandDims/dim"], "attr": {"T": {"type": "DT_FLOAT"}, "Tdim": {"type": "DT_INT32"}}}, {"name": "model/485_EXPAND2/ExpandDims", "op": "ExpandDims", "input": ["model/485_EXPAND1/ExpandDims", "model/485_EXPAND2/ExpandDims/dim"], "attr": {"T": {"type": "DT_FLOAT"}, "Tdim": {"type": "DT_INT32"}}}, {"name": "model/486/Conv2D", "op": "Conv2D", "input": ["model/485_EXPAND2/ExpandDims", "model/486/Conv2D/ReadVariableOp"], "device": "/device:CPU:0", "attr": {"strides": {"list": {"i": ["1", "1", "1", "1"]}}, "use_cudnn_on_gpu": {"b": true}, "data_format": {"s": "TkNIVw=="}, "explicit_paddings": {"list": {}}, "padding": {"s": "VkFMSUQ="}, "dilations": {"list": {"i": ["1", "1", "1", "1"]}}, "T": {"type": "DT_FLOAT"}}}, {"name": "model/486/BiasAdd", "op": "BiasAdd", "input": ["model/486/Conv2D", "model/486/BiasAdd/ReadVariableOp"], "attr": {"T": {"type": "DT_FLOAT"}, "data_format": {"s": "TkNIVw=="}}}, {"name": "model/487/Sigmoid", "op": "Sigmoid", "input": ["model/486/BiasAdd"], "attr": {"T": {"type": "DT_FLOAT"}}}, {"name": "model/488/mul", "op": "Mul", "input": ["model/486/BiasAdd", "model/487/Sigmoid"], "attr": {"T": {"type": "DT_FLOAT"}}}, {"name": "model/489/Conv2D", "op": "Conv2D", "input": ["model/488/mul", "model/489/Conv2D/ReadVariableOp"], "device": "/device:CPU:0", "attr": {"use_cudnn_on_gpu": {"b": true}, "strides": {"list": {"i": ["1", "1", "1", "1"]}}, "data_format": {"s": "TkNIVw=="}, "explicit_paddings": {"list": {}}, "dilations": {"list": {"i": ["1", "1", "1", "1"]}}, "T": {"type": "DT_FLOAT"}, "padding": {"s": "VkFMSUQ="}}}, {"name": "model/489/BiasAdd", "op": "BiasAdd", "input": ["model/489/Conv2D", "model/489/BiasAdd/ReadVariableOp"], "attr": {"T": {"type": "DT_FLOAT"}, "data_format": {"s": "TkNIVw=="}}}, {"name": "model/490/Sigmoid", "op": "Sigmoid", "input": ["model/489/BiasAdd"], "attr": {"T": {"type": "DT_FLOAT"}}}, {"name": "model/491/mul", "op": "Mul", "input": ["model/490/Sigmoid", "model/484/mul"], "attr": {"T": {"type": "DT_FLOAT"}}}, {"name": "model/732/Conv2D", "op": "Conv2D", "input": ["model/491/mul", "model/732/Conv2D/ReadVariableOp"], "device": "/device:CPU:0", "attr": {"strides": {"list": {"i": ["1", "1", "1", "1"]}}, "dilations": {"list": {"i": ["1", "1", "1", "1"]}}, "data_format": {"s": "TkNIVw=="}, "padding": {"s": "VkFMSUQ="}, "use_cudnn_on_gpu": {"b": true}, "T": {"type": "DT_FLOAT"}, "explicit_paddings": {"list": {}}}}, {"name": "model/732/BiasAdd", "op": "BiasAdd", "input": ["model/732/Conv2D", "model/732/BiasAdd/ReadVariableOp"], "attr": {"data_format": {"s": "TkNIVw=="}, "T": {"type": "DT_FLOAT"}}}, {"name": "model/494/add", "op": "AddV2", "input": ["model/732/BiasAdd", "model/723/BiasAdd"], "attr": {"T": {"type": "DT_FLOAT"}}}, {"name": "model/735/Conv2D", "op": "Conv2D", "input": ["model/494/add", "model/735/Conv2D/ReadVariableOp"], "device": "/device:CPU:0", "attr": {"T": {"type": "DT_FLOAT"}, "data_format": {"s": "TkNIVw=="}, "dilations": {"list": {"i": ["1", "1", "1", "1"]}}, "explicit_paddings": {"list": {}}, "padding": {"s": "VkFMSUQ="}, "use_cudnn_on_gpu": {"b": true}, "strides": {"list": {"i": ["1", "1", "1", "1"]}}}}, {"name": "model/735/BiasAdd", "op": "BiasAdd", "input": ["model/735/Conv2D", "model/735/BiasAdd/ReadVariableOp"], "attr": {"data_format": {"s": "TkNIVw=="}, "T": {"type": "DT_FLOAT"}}}, {"name": "model/497/Sigmoid", "op": "Sigmoid", "input": ["model/735/BiasAdd"], "attr": {"T": {"type": "DT_FLOAT"}}}, {"name": "model/498/mul", "op": "Mul", "input": ["model/735/BiasAdd", "model/497/Sigmoid"], "attr": {"T": {"type": "DT_FLOAT"}}}, {"name": "model/499/Pad", "op": "Pad", "input": ["model/498/mul", "model/499/Pad/paddings"], "attr": {"Tpaddings": {"type": "DT_INT32"}, "T": {"type": "DT_FLOAT"}}}, {"name": "model/738/transpose", "op": "Transpose", "input": ["model/499/Pad", "model/738/transpose/perm"], "attr": {"Tperm": {"type": "DT_INT32"}, "T": {"type": "DT_FLOAT"}}}, {"name": "model/738/depthwise", "op": "DepthwiseConv2dNative", "input": ["model/738/transpose", "model/738/depthwise/ReadVariableOp"], "attr": {"padding": {"s": "VkFMSUQ="}, "explicit_paddings": {"list": {}}, "data_format": {"s": "TkhXQw=="}, "strides": {"list": {"i": ["1", "1", "1", "1"]}}, "dilations": {"list": {"i": ["1", "1", "1", "1"]}}, "T": {"type": "DT_FLOAT"}}}, {"name": "model/738/transpose_1", "op": "Transpose", "input": ["model/738/depthwise", "model/738/transpose_1/perm"], "attr": {"T": {"type": "DT_FLOAT"}, "Tperm": {"type": "DT_INT32"}}}, {"name": "model/738/BiasAdd", "op": "BiasAdd", "input": ["model/738/transpose_1", "model/738/BiasAdd/ReadVariableOp"], "attr": {"data_format": {"s": "TkNIVw=="}, "T": {"type": "DT_FLOAT"}}}, {"name": "model/502/Sigmoid", "op": "Sigmoid", "input": ["model/738/BiasAdd"], "attr": {"T": {"type": "DT_FLOAT"}}}, {"name": "model/503/mul", "op": "Mul", "input": ["model/738/BiasAdd", "model/502/Sigmoid"], "attr": {"T": {"type": "DT_FLOAT"}}}, {"name": "model/504/Mean", "op": "Mean", "input": ["model/503/mul", "model/504/Mean/reduction_indices"], "attr": {"Tidx": {"type": "DT_INT32"}, "T": {"type": "DT_FLOAT"}, "keep_dims": {"b": false}}}, {"name": "model/504_EXPAND1/ExpandDims", "op": "ExpandDims", "input": ["model/504/Mean", "model/504_EXPAND1/ExpandDims/dim"], "attr": {"T": {"type": "DT_FLOAT"}, "Tdim": {"type": "DT_INT32"}}}, {"name": "model/504_EXPAND2/ExpandDims", "op": "ExpandDims", "input": ["model/504_EXPAND1/ExpandDims", "model/504_EXPAND2/ExpandDims/dim"], "attr": {"T": {"type": "DT_FLOAT"}, "Tdim": {"type": "DT_INT32"}}}, {"name": "model/505/Conv2D", "op": "Conv2D", "input": ["model/504_EXPAND2/ExpandDims", "model/505/Conv2D/ReadVariableOp"], "device": "/device:CPU:0", "attr": {"dilations": {"list": {"i": ["1", "1", "1", "1"]}}, "padding": {"s": "VkFMSUQ="}, "explicit_paddings": {"list": {}}, "T": {"type": "DT_FLOAT"}, "strides": {"list": {"i": ["1", "1", "1", "1"]}}, "data_format": {"s": "TkNIVw=="}, "use_cudnn_on_gpu": {"b": true}}}, {"name": "model/505/BiasAdd", "op": "BiasAdd", "input": ["model/505/Conv2D", "model/505/BiasAdd/ReadVariableOp"], "attr": {"data_format": {"s": "TkNIVw=="}, "T": {"type": "DT_FLOAT"}}}, {"name": "model/506/Sigmoid", "op": "Sigmoid", "input": ["model/505/BiasAdd"], "attr": {"T": {"type": "DT_FLOAT"}}}, {"name": "model/507/mul", "op": "Mul", "input": ["model/505/BiasAdd", "model/506/Sigmoid"], "attr": {"T": {"type": "DT_FLOAT"}}}, {"name": "model/508/Conv2D", "op": "Conv2D", "input": ["model/507/mul", "model/508/Conv2D/ReadVariableOp"], "device": "/device:CPU:0", "attr": {"use_cudnn_on_gpu": {"b": true}, "T": {"type": "DT_FLOAT"}, "dilations": {"list": {"i": ["1", "1", "1", "1"]}}, "data_format": {"s": "TkNIVw=="}, "padding": {"s": "VkFMSUQ="}, "explicit_paddings": {"list": {}}, "strides": {"list": {"i": ["1", "1", "1", "1"]}}}}, {"name": "model/508/BiasAdd", "op": "BiasAdd", "input": ["model/508/Conv2D", "model/508/BiasAdd/ReadVariableOp"], "attr": {"T": {"type": "DT_FLOAT"}, "data_format": {"s": "TkNIVw=="}}}, {"name": "model/509/Sigmoid", "op": "Sigmoid", "input": ["model/508/BiasAdd"], "attr": {"T": {"type": "DT_FLOAT"}}}, {"name": "model/510/mul", "op": "Mul", "input": ["model/509/Sigmoid", "model/503/mul"], "attr": {"T": {"type": "DT_FLOAT"}}}, {"name": "model/741/Conv2D", "op": "Conv2D", "input": ["model/510/mul", "model/741/Conv2D/ReadVariableOp"], "device": "/device:CPU:0", "attr": {"data_format": {"s": "TkNIVw=="}, "T": {"type": "DT_FLOAT"}, "dilations": {"list": {"i": ["1", "1", "1", "1"]}}, "strides": {"list": {"i": ["1", "1", "1", "1"]}}, "use_cudnn_on_gpu": {"b": true}, "padding": {"s": "VkFMSUQ="}, "explicit_paddings": {"list": {}}}}, {"name": "model/741/BiasAdd", "op": "BiasAdd", "input": ["model/741/Conv2D", "model/741/BiasAdd/ReadVariableOp"], "attr": {"data_format": {"s": "TkNIVw=="}, "T": {"type": "DT_FLOAT"}}}, {"name": "model/513/add", "op": "AddV2", "input": ["model/741/BiasAdd", "model/494/add"], "attr": {"T": {"type": "DT_FLOAT"}}}, {"name": "model/744/Conv2D", "op": "Conv2D", "input": ["model/513/add", "model/744/Conv2D/ReadVariableOp"], "device": "/device:CPU:0", "attr": {"use_cudnn_on_gpu": {"b": true}, "data_format": {"s": "TkNIVw=="}, "strides": {"list": {"i": ["1", "1", "1", "1"]}}, "dilations": {"list": {"i": ["1", "1", "1", "1"]}}, "T": {"type": "DT_FLOAT"}, "padding": {"s": "VkFMSUQ="}, "explicit_paddings": {"list": {}}}}, {"name": "model/744/BiasAdd", "op": "BiasAdd", "input": ["model/744/Conv2D", "model/744/BiasAdd/ReadVariableOp"], "attr": {"data_format": {"s": "TkNIVw=="}, "T": {"type": "DT_FLOAT"}}}, {"name": "model/516/Sigmoid", "op": "Sigmoid", "input": ["model/744/BiasAdd"], "attr": {"T": {"type": "DT_FLOAT"}}}, {"name": "model/517/mul", "op": "Mul", "input": ["model/744/BiasAdd", "model/516/Sigmoid"], "attr": {"T": {"type": "DT_FLOAT"}}}, {"name": "model/518/Pad", "op": "Pad", "input": ["model/517/mul", "model/518/Pad/paddings"], "attr": {"Tpaddings": {"type": "DT_INT32"}, "T": {"type": "DT_FLOAT"}}}, {"name": "model/747/transpose", "op": "Transpose", "input": ["model/518/Pad", "model/747/transpose/perm"], "attr": {"Tperm": {"type": "DT_INT32"}, "T": {"type": "DT_FLOAT"}}}, {"name": "model/747/depthwise", "op": "DepthwiseConv2dNative", "input": ["model/747/transpose", "model/747/depthwise/ReadVariableOp"], "attr": {"T": {"type": "DT_FLOAT"}, "data_format": {"s": "TkhXQw=="}, "explicit_paddings": {"list": {}}, "padding": {"s": "VkFMSUQ="}, "dilations": {"list": {"i": ["1", "1", "1", "1"]}}, "strides": {"list": {"i": ["1", "1", "1", "1"]}}}}, {"name": "model/747/transpose_1", "op": "Transpose", "input": ["model/747/depthwise", "model/747/transpose_1/perm"], "attr": {"Tperm": {"type": "DT_INT32"}, "T": {"type": "DT_FLOAT"}}}, {"name": "model/747/BiasAdd", "op": "BiasAdd", "input": ["model/747/transpose_1", "model/747/BiasAdd/ReadVariableOp"], "attr": {"data_format": {"s": "TkNIVw=="}, "T": {"type": "DT_FLOAT"}}}, {"name": "model/521/Sigmoid", "op": "Sigmoid", "input": ["model/747/BiasAdd"], "attr": {"T": {"type": "DT_FLOAT"}}}, {"name": "model/522/mul", "op": "Mul", "input": ["model/747/BiasAdd", "model/521/Sigmoid"], "attr": {"T": {"type": "DT_FLOAT"}}}, {"name": "model/523/Mean", "op": "Mean", "input": ["model/522/mul", "model/523/Mean/reduction_indices"], "attr": {"T": {"type": "DT_FLOAT"}, "Tidx": {"type": "DT_INT32"}, "keep_dims": {"b": false}}}, {"name": "model/523_EXPAND1/ExpandDims", "op": "ExpandDims", "input": ["model/523/Mean", "model/523_EXPAND1/ExpandDims/dim"], "attr": {"Tdim": {"type": "DT_INT32"}, "T": {"type": "DT_FLOAT"}}}, {"name": "model/523_EXPAND2/ExpandDims", "op": "ExpandDims", "input": ["model/523_EXPAND1/ExpandDims", "model/523_EXPAND2/ExpandDims/dim"], "attr": {"Tdim": {"type": "DT_INT32"}, "T": {"type": "DT_FLOAT"}}}, {"name": "model/524/Conv2D", "op": "Conv2D", "input": ["model/523_EXPAND2/ExpandDims", "model/524/Conv2D/ReadVariableOp"], "device": "/device:CPU:0", "attr": {"padding": {"s": "VkFMSUQ="}, "use_cudnn_on_gpu": {"b": true}, "explicit_paddings": {"list": {}}, "dilations": {"list": {"i": ["1", "1", "1", "1"]}}, "T": {"type": "DT_FLOAT"}, "strides": {"list": {"i": ["1", "1", "1", "1"]}}, "data_format": {"s": "TkNIVw=="}}}, {"name": "model/524/BiasAdd", "op": "BiasAdd", "input": ["model/524/Conv2D", "model/524/BiasAdd/ReadVariableOp"], "attr": {"T": {"type": "DT_FLOAT"}, "data_format": {"s": "TkNIVw=="}}}, {"name": "model/525/Sigmoid", "op": "Sigmoid", "input": ["model/524/BiasAdd"], "attr": {"T": {"type": "DT_FLOAT"}}}, {"name": "model/526/mul", "op": "Mul", "input": ["model/524/BiasAdd", "model/525/Sigmoid"], "attr": {"T": {"type": "DT_FLOAT"}}}, {"name": "model/527/Conv2D", "op": "Conv2D", "input": ["model/526/mul", "model/527/Conv2D/ReadVariableOp"], "device": "/device:CPU:0", "attr": {"padding": {"s": "VkFMSUQ="}, "dilations": {"list": {"i": ["1", "1", "1", "1"]}}, "data_format": {"s": "TkNIVw=="}, "explicit_paddings": {"list": {}}, "use_cudnn_on_gpu": {"b": true}, "strides": {"list": {"i": ["1", "1", "1", "1"]}}, "T": {"type": "DT_FLOAT"}}}, {"name": "model/527/BiasAdd", "op": "BiasAdd", "input": ["model/527/Conv2D", "model/527/BiasAdd/ReadVariableOp"], "attr": {"T": {"type": "DT_FLOAT"}, "data_format": {"s": "TkNIVw=="}}}, {"name": "model/528/Sigmoid", "op": "Sigmoid", "input": ["model/527/BiasAdd"], "attr": {"T": {"type": "DT_FLOAT"}}}, {"name": "model/529/mul", "op": "Mul", "input": ["model/528/Sigmoid", "model/522/mul"], "attr": {"T": {"type": "DT_FLOAT"}}}, {"name": "model/750/Conv2D", "op": "Conv2D", "input": ["model/529/mul", "model/750/Conv2D/ReadVariableOp"], "device": "/device:CPU:0", "attr": {"data_format": {"s": "TkNIVw=="}, "dilations": {"list": {"i": ["1", "1", "1", "1"]}}, "T": {"type": "DT_FLOAT"}, "padding": {"s": "VkFMSUQ="}, "strides": {"list": {"i": ["1", "1", "1", "1"]}}, "explicit_paddings": {"list": {}}, "use_cudnn_on_gpu": {"b": true}}}, {"name": "model/750/BiasAdd", "op": "BiasAdd", "input": ["model/750/Conv2D", "model/750/BiasAdd/ReadVariableOp"], "attr": {"T": {"type": "DT_FLOAT"}, "data_format": {"s": "TkNIVw=="}}}, {"name": "model/753/Conv2D", "op": "Conv2D", "input": ["model/750/BiasAdd", "model/753/Conv2D/ReadVariableOp"], "device": "/device:CPU:0", "attr": {"strides": {"list": {"i": ["1", "1", "1", "1"]}}, "explicit_paddings": {"list": {}}, "dilations": {"list": {"i": ["1", "1", "1", "1"]}}, "T": {"type": "DT_FLOAT"}, "use_cudnn_on_gpu": {"b": true}, "data_format": {"s": "TkNIVw=="}, "padding": {"s": "VkFMSUQ="}}}, {"name": "model/753/BiasAdd", "op": "BiasAdd", "input": ["model/753/Conv2D", "model/753/BiasAdd/ReadVariableOp"], "attr": {"T": {"type": "DT_FLOAT"}, "data_format": {"s": "TkNIVw=="}}}, {"name": "model/534/Sigmoid", "op": "Sigmoid", "input": ["model/753/BiasAdd"], "attr": {"T": {"type": "DT_FLOAT"}}}, {"name": "model/535/mul", "op": "Mul", "input": ["model/753/BiasAdd", "model/534/Sigmoid"], "attr": {"T": {"type": "DT_FLOAT"}}}, {"name": "model/536/Pad", "op": "Pad", "input": ["model/535/mul", "model/536/Pad/paddings"], "attr": {"T": {"type": "DT_FLOAT"}, "Tpaddings": {"type": "DT_INT32"}}}, {"name": "model/756/transpose", "op": "Transpose", "input": ["model/536/Pad", "model/756/transpose/perm"], "attr": {"T": {"type": "DT_FLOAT"}, "Tperm": {"type": "DT_INT32"}}}, {"name": "model/756/depthwise", "op": "DepthwiseConv2dNative", "input": ["model/756/transpose", "model/756/depthwise/ReadVariableOp"], "attr": {"explicit_paddings": {"list": {}}, "data_format": {"s": "TkhXQw=="}, "dilations": {"list": {"i": ["1", "1", "1", "1"]}}, "padding": {"s": "VkFMSUQ="}, "strides": {"list": {"i": ["1", "1", "1", "1"]}}, "T": {"type": "DT_FLOAT"}}}, {"name": "model/756/transpose_1", "op": "Transpose", "input": ["model/756/depthwise", "model/756/transpose_1/perm"], "attr": {"T": {"type": "DT_FLOAT"}, "Tperm": {"type": "DT_INT32"}}}, {"name": "model/756/BiasAdd", "op": "BiasAdd", "input": ["model/756/transpose_1", "model/756/BiasAdd/ReadVariableOp"], "attr": {"T": {"type": "DT_FLOAT"}, "data_format": {"s": "TkNIVw=="}}}, {"name": "model/539/Sigmoid", "op": "Sigmoid", "input": ["model/756/BiasAdd"], "attr": {"T": {"type": "DT_FLOAT"}}}, {"name": "model/540/mul", "op": "Mul", "input": ["model/756/BiasAdd", "model/539/Sigmoid"], "attr": {"T": {"type": "DT_FLOAT"}}}, {"name": "model/541/Mean", "op": "Mean", "input": ["model/540/mul", "model/541/Mean/reduction_indices"], "attr": {"keep_dims": {"b": false}, "T": {"type": "DT_FLOAT"}, "Tidx": {"type": "DT_INT32"}}}, {"name": "model/541_EXPAND1/ExpandDims", "op": "ExpandDims", "input": ["model/541/Mean", "model/541_EXPAND1/ExpandDims/dim"], "attr": {"T": {"type": "DT_FLOAT"}, "Tdim": {"type": "DT_INT32"}}}, {"name": "model/541_EXPAND2/ExpandDims", "op": "ExpandDims", "input": ["model/541_EXPAND1/ExpandDims", "model/541_EXPAND2/ExpandDims/dim"], "attr": {"Tdim": {"type": "DT_INT32"}, "T": {"type": "DT_FLOAT"}}}, {"name": "model/542/Conv2D", "op": "Conv2D", "input": ["model/541_EXPAND2/ExpandDims", "model/542/Conv2D/ReadVariableOp"], "device": "/device:CPU:0", "attr": {"T": {"type": "DT_FLOAT"}, "padding": {"s": "VkFMSUQ="}, "strides": {"list": {"i": ["1", "1", "1", "1"]}}, "use_cudnn_on_gpu": {"b": true}, "data_format": {"s": "TkNIVw=="}, "explicit_paddings": {"list": {}}, "dilations": {"list": {"i": ["1", "1", "1", "1"]}}}}, {"name": "model/542/BiasAdd", "op": "BiasAdd", "input": ["model/542/Conv2D", "model/542/BiasAdd/ReadVariableOp"], "attr": {"T": {"type": "DT_FLOAT"}, "data_format": {"s": "TkNIVw=="}}}, {"name": "model/543/Sigmoid", "op": "Sigmoid", "input": ["model/542/BiasAdd"], "attr": {"T": {"type": "DT_FLOAT"}}}, {"name": "model/544/mul", "op": "Mul", "input": ["model/542/BiasAdd", "model/543/Sigmoid"], "attr": {"T": {"type": "DT_FLOAT"}}}, {"name": "model/545/Conv2D", "op": "Conv2D", "input": ["model/544/mul", "model/545/Conv2D/ReadVariableOp"], "device": "/device:CPU:0", "attr": {"padding": {"s": "VkFMSUQ="}, "data_format": {"s": "TkNIVw=="}, "explicit_paddings": {"list": {}}, "strides": {"list": {"i": ["1", "1", "1", "1"]}}, "dilations": {"list": {"i": ["1", "1", "1", "1"]}}, "use_cudnn_on_gpu": {"b": true}, "T": {"type": "DT_FLOAT"}}}, {"name": "model/545/BiasAdd", "op": "BiasAdd", "input": ["model/545/Conv2D", "model/545/BiasAdd/ReadVariableOp"], "attr": {"data_format": {"s": "TkNIVw=="}, "T": {"type": "DT_FLOAT"}}}, {"name": "model/546/Sigmoid", "op": "Sigmoid", "input": ["model/545/BiasAdd"], "attr": {"T": {"type": "DT_FLOAT"}}}, {"name": "model/547/mul", "op": "Mul", "input": ["model/546/Sigmoid", "model/540/mul"], "attr": {"T": {"type": "DT_FLOAT"}}}, {"name": "model/759/Conv2D", "op": "Conv2D", "input": ["model/547/mul", "model/759/Conv2D/ReadVariableOp"], "device": "/device:CPU:0", "attr": {"dilations": {"list": {"i": ["1", "1", "1", "1"]}}, "use_cudnn_on_gpu": {"b": true}, "data_format": {"s": "TkNIVw=="}, "strides": {"list": {"i": ["1", "1", "1", "1"]}}, "padding": {"s": "VkFMSUQ="}, "T": {"type": "DT_FLOAT"}, "explicit_paddings": {"list": {}}}}, {"name": "model/759/BiasAdd", "op": "BiasAdd", "input": ["model/759/Conv2D", "model/759/BiasAdd/ReadVariableOp"], "attr": {"T": {"type": "DT_FLOAT"}, "data_format": {"s": "TkNIVw=="}}}, {"name": "model/550/add", "op": "AddV2", "input": ["model/759/BiasAdd", "model/750/BiasAdd"], "attr": {"T": {"type": "DT_FLOAT"}}}, {"name": "model/762/Conv2D", "op": "Conv2D", "input": ["model/550/add", "model/762/Conv2D/ReadVariableOp"], "device": "/device:CPU:0", "attr": {"data_format": {"s": "TkNIVw=="}, "padding": {"s": "VkFMSUQ="}, "dilations": {"list": {"i": ["1", "1", "1", "1"]}}, "use_cudnn_on_gpu": {"b": true}, "explicit_paddings": {"list": {}}, "strides": {"list": {"i": ["1", "1", "1", "1"]}}, "T": {"type": "DT_FLOAT"}}}, {"name": "model/762/BiasAdd", "op": "BiasAdd", "input": ["model/762/Conv2D", "model/762/BiasAdd/ReadVariableOp"], "attr": {"T": {"type": "DT_FLOAT"}, "data_format": {"s": "TkNIVw=="}}}, {"name": "model/553/Sigmoid", "op": "Sigmoid", "input": ["model/762/BiasAdd"], "attr": {"T": {"type": "DT_FLOAT"}}}, {"name": "model/554/mul", "op": "Mul", "input": ["model/762/BiasAdd", "model/553/Sigmoid"], "attr": {"T": {"type": "DT_FLOAT"}}}, {"name": "model/555/Pad", "op": "Pad", "input": ["model/554/mul", "model/555/Pad/paddings"], "attr": {"T": {"type": "DT_FLOAT"}, "Tpaddings": {"type": "DT_INT32"}}}, {"name": "model/765/transpose", "op": "Transpose", "input": ["model/555/Pad", "model/765/transpose/perm"], "attr": {"T": {"type": "DT_FLOAT"}, "Tperm": {"type": "DT_INT32"}}}, {"name": "model/765/depthwise", "op": "DepthwiseConv2dNative", "input": ["model/765/transpose", "model/765/depthwise/ReadVariableOp"], "attr": {"padding": {"s": "VkFMSUQ="}, "data_format": {"s": "TkhXQw=="}, "T": {"type": "DT_FLOAT"}, "dilations": {"list": {"i": ["1", "1", "1", "1"]}}, "explicit_paddings": {"list": {}}, "strides": {"list": {"i": ["1", "1", "1", "1"]}}}}, {"name": "model/765/transpose_1", "op": "Transpose", "input": ["model/765/depthwise", "model/765/transpose_1/perm"], "attr": {"Tperm": {"type": "DT_INT32"}, "T": {"type": "DT_FLOAT"}}}, {"name": "model/765/BiasAdd", "op": "BiasAdd", "input": ["model/765/transpose_1", "model/765/BiasAdd/ReadVariableOp"], "attr": {"data_format": {"s": "TkNIVw=="}, "T": {"type": "DT_FLOAT"}}}, {"name": "model/558/Sigmoid", "op": "Sigmoid", "input": ["model/765/BiasAdd"], "attr": {"T": {"type": "DT_FLOAT"}}}, {"name": "model/559/mul", "op": "Mul", "input": ["model/765/BiasAdd", "model/558/Sigmoid"], "attr": {"T": {"type": "DT_FLOAT"}}}, {"name": "model/560/Mean", "op": "Mean", "input": ["model/559/mul", "model/560/Mean/reduction_indices"], "attr": {"T": {"type": "DT_FLOAT"}, "Tidx": {"type": "DT_INT32"}, "keep_dims": {"b": false}}}, {"name": "model/560_EXPAND1/ExpandDims", "op": "ExpandDims", "input": ["model/560/Mean", "model/560_EXPAND1/ExpandDims/dim"], "attr": {"Tdim": {"type": "DT_INT32"}, "T": {"type": "DT_FLOAT"}}}, {"name": "model/560_EXPAND2/ExpandDims", "op": "ExpandDims", "input": ["model/560_EXPAND1/ExpandDims", "model/560_EXPAND2/ExpandDims/dim"], "attr": {"Tdim": {"type": "DT_INT32"}, "T": {"type": "DT_FLOAT"}}}, {"name": "model/561/Conv2D", "op": "Conv2D", "input": ["model/560_EXPAND2/ExpandDims", "model/561/Conv2D/ReadVariableOp"], "device": "/device:CPU:0", "attr": {"explicit_paddings": {"list": {}}, "strides": {"list": {"i": ["1", "1", "1", "1"]}}, "padding": {"s": "VkFMSUQ="}, "T": {"type": "DT_FLOAT"}, "dilations": {"list": {"i": ["1", "1", "1", "1"]}}, "use_cudnn_on_gpu": {"b": true}, "data_format": {"s": "TkNIVw=="}}}, {"name": "model/561/BiasAdd", "op": "BiasAdd", "input": ["model/561/Conv2D", "model/561/BiasAdd/ReadVariableOp"], "attr": {"T": {"type": "DT_FLOAT"}, "data_format": {"s": "TkNIVw=="}}}, {"name": "model/562/Sigmoid", "op": "Sigmoid", "input": ["model/561/BiasAdd"], "attr": {"T": {"type": "DT_FLOAT"}}}, {"name": "model/563/mul", "op": "Mul", "input": ["model/561/BiasAdd", "model/562/Sigmoid"], "attr": {"T": {"type": "DT_FLOAT"}}}, {"name": "model/564/Conv2D", "op": "Conv2D", "input": ["model/563/mul", "model/564/Conv2D/ReadVariableOp"], "device": "/device:CPU:0", "attr": {"padding": {"s": "VkFMSUQ="}, "strides": {"list": {"i": ["1", "1", "1", "1"]}}, "data_format": {"s": "TkNIVw=="}, "dilations": {"list": {"i": ["1", "1", "1", "1"]}}, "explicit_paddings": {"list": {}}, "T": {"type": "DT_FLOAT"}, "use_cudnn_on_gpu": {"b": true}}}, {"name": "model/564/BiasAdd", "op": "BiasAdd", "input": ["model/564/Conv2D", "model/564/BiasAdd/ReadVariableOp"], "attr": {"data_format": {"s": "TkNIVw=="}, "T": {"type": "DT_FLOAT"}}}, {"name": "model/565/Sigmoid", "op": "Sigmoid", "input": ["model/564/BiasAdd"], "attr": {"T": {"type": "DT_FLOAT"}}}, {"name": "model/566/mul", "op": "Mul", "input": ["model/565/Sigmoid", "model/559/mul"], "attr": {"T": {"type": "DT_FLOAT"}}}, {"name": "model/768/Conv2D", "op": "Conv2D", "input": ["model/566/mul", "model/768/Conv2D/ReadVariableOp"], "device": "/device:CPU:0", "attr": {"data_format": {"s": "TkNIVw=="}, "padding": {"s": "VkFMSUQ="}, "use_cudnn_on_gpu": {"b": true}, "T": {"type": "DT_FLOAT"}, "explicit_paddings": {"list": {}}, "strides": {"list": {"i": ["1", "1", "1", "1"]}}, "dilations": {"list": {"i": ["1", "1", "1", "1"]}}}}, {"name": "model/768/BiasAdd", "op": "BiasAdd", "input": ["model/768/Conv2D", "model/768/BiasAdd/ReadVariableOp"], "attr": {"data_format": {"s": "TkNIVw=="}, "T": {"type": "DT_FLOAT"}}}, {"name": "model/569/add", "op": "AddV2", "input": ["model/768/BiasAdd", "model/550/add"], "attr": {"T": {"type": "DT_FLOAT"}}}, {"name": "model/771/Conv2D", "op": "Conv2D", "input": ["model/569/add", "model/771/Conv2D/ReadVariableOp"], "device": "/device:CPU:0", "attr": {"strides": {"list": {"i": ["1", "1", "1", "1"]}}, "use_cudnn_on_gpu": {"b": true}, "data_format": {"s": "TkNIVw=="}, "padding": {"s": "VkFMSUQ="}, "explicit_paddings": {"list": {}}, "dilations": {"list": {"i": ["1", "1", "1", "1"]}}, "T": {"type": "DT_FLOAT"}}}, {"name": "model/771/BiasAdd", "op": "BiasAdd", "input": ["model/771/Conv2D", "model/771/BiasAdd/ReadVariableOp"], "attr": {"data_format": {"s": "TkNIVw=="}, "T": {"type": "DT_FLOAT"}}}, {"name": "model/572/Sigmoid", "op": "Sigmoid", "input": ["model/771/BiasAdd"], "attr": {"T": {"type": "DT_FLOAT"}}}, {"name": "model/573/mul", "op": "Mul", "input": ["model/771/BiasAdd", "model/572/Sigmoid"], "attr": {"T": {"type": "DT_FLOAT"}}}, {"name": "model/574/Pad", "op": "Pad", "input": ["model/573/mul", "model/574/Pad/paddings"], "attr": {"T": {"type": "DT_FLOAT"}, "Tpaddings": {"type": "DT_INT32"}}}, {"name": "model/774/transpose", "op": "Transpose", "input": ["model/574/Pad", "model/774/transpose/perm"], "attr": {"Tperm": {"type": "DT_INT32"}, "T": {"type": "DT_FLOAT"}}}, {"name": "model/774/depthwise", "op": "DepthwiseConv2dNative", "input": ["model/774/transpose", "model/774/depthwise/ReadVariableOp"], "attr": {"data_format": {"s": "TkhXQw=="}, "dilations": {"list": {"i": ["1", "1", "1", "1"]}}, "strides": {"list": {"i": ["1", "2", "2", "1"]}}, "padding": {"s": "VkFMSUQ="}, "explicit_paddings": {"list": {}}, "T": {"type": "DT_FLOAT"}}}, {"name": "model/774/transpose_1", "op": "Transpose", "input": ["model/774/depthwise", "model/774/transpose_1/perm"], "attr": {"Tperm": {"type": "DT_INT32"}, "T": {"type": "DT_FLOAT"}}}, {"name": "model/774/BiasAdd", "op": "BiasAdd", "input": ["model/774/transpose_1", "model/774/BiasAdd/ReadVariableOp"], "attr": {"data_format": {"s": "TkNIVw=="}, "T": {"type": "DT_FLOAT"}}}, {"name": "model/577/Sigmoid", "op": "Sigmoid", "input": ["model/774/BiasAdd"], "attr": {"T": {"type": "DT_FLOAT"}}}, {"name": "model/578/mul", "op": "Mul", "input": ["model/774/BiasAdd", "model/577/Sigmoid"], "attr": {"T": {"type": "DT_FLOAT"}}}, {"name": "model/579/Mean", "op": "Mean", "input": ["model/578/mul", "model/579/Mean/reduction_indices"], "attr": {"T": {"type": "DT_FLOAT"}, "Tidx": {"type": "DT_INT32"}, "keep_dims": {"b": false}}}, {"name": "model/579_EXPAND1/ExpandDims", "op": "ExpandDims", "input": ["model/579/Mean", "model/579_EXPAND1/ExpandDims/dim"], "attr": {"T": {"type": "DT_FLOAT"}, "Tdim": {"type": "DT_INT32"}}}, {"name": "model/579_EXPAND2/ExpandDims", "op": "ExpandDims", "input": ["model/579_EXPAND1/ExpandDims", "model/579_EXPAND2/ExpandDims/dim"], "attr": {"T": {"type": "DT_FLOAT"}, "Tdim": {"type": "DT_INT32"}}}, {"name": "model/580/Conv2D", "op": "Conv2D", "input": ["model/579_EXPAND2/ExpandDims", "model/580/Conv2D/ReadVariableOp"], "device": "/device:CPU:0", "attr": {"use_cudnn_on_gpu": {"b": true}, "dilations": {"list": {"i": ["1", "1", "1", "1"]}}, "strides": {"list": {"i": ["1", "1", "1", "1"]}}, "explicit_paddings": {"list": {}}, "padding": {"s": "VkFMSUQ="}, "T": {"type": "DT_FLOAT"}, "data_format": {"s": "TkNIVw=="}}}, {"name": "model/580/BiasAdd", "op": "BiasAdd", "input": ["model/580/Conv2D", "model/580/BiasAdd/ReadVariableOp"], "attr": {"data_format": {"s": "TkNIVw=="}, "T": {"type": "DT_FLOAT"}}}, {"name": "model/581/Sigmoid", "op": "Sigmoid", "input": ["model/580/BiasAdd"], "attr": {"T": {"type": "DT_FLOAT"}}}, {"name": "model/582/mul", "op": "Mul", "input": ["model/580/BiasAdd", "model/581/Sigmoid"], "attr": {"T": {"type": "DT_FLOAT"}}}, {"name": "model/583/Conv2D", "op": "Conv2D", "input": ["model/582/mul", "model/583/Conv2D/ReadVariableOp"], "device": "/device:CPU:0", "attr": {"T": {"type": "DT_FLOAT"}, "use_cudnn_on_gpu": {"b": true}, "dilations": {"list": {"i": ["1", "1", "1", "1"]}}, "explicit_paddings": {"list": {}}, "strides": {"list": {"i": ["1", "1", "1", "1"]}}, "padding": {"s": "VkFMSUQ="}, "data_format": {"s": "TkNIVw=="}}}, {"name": "model/583/BiasAdd", "op": "BiasAdd", "input": ["model/583/Conv2D", "model/583/BiasAdd/ReadVariableOp"], "attr": {"data_format": {"s": "TkNIVw=="}, "T": {"type": "DT_FLOAT"}}}, {"name": "model/584/Sigmoid", "op": "Sigmoid", "input": ["model/583/BiasAdd"], "attr": {"T": {"type": "DT_FLOAT"}}}, {"name": "model/585/mul", "op": "Mul", "input": ["model/584/Sigmoid", "model/578/mul"], "attr": {"T": {"type": "DT_FLOAT"}}}, {"name": "model/777/Conv2D", "op": "Conv2D", "input": ["model/585/mul", "model/777/Conv2D/ReadVariableOp"], "device": "/device:CPU:0", "attr": {"padding": {"s": "VkFMSUQ="}, "data_format": {"s": "TkNIVw=="}, "T": {"type": "DT_FLOAT"}, "use_cudnn_on_gpu": {"b": true}, "dilations": {"list": {"i": ["1", "1", "1", "1"]}}, "strides": {"list": {"i": ["1", "1", "1", "1"]}}, "explicit_paddings": {"list": {}}}}, {"name": "model/777/BiasAdd", "op": "BiasAdd", "input": ["model/777/Conv2D", "model/777/BiasAdd/ReadVariableOp"], "attr": {"data_format": {"s": "TkNIVw=="}, "T": {"type": "DT_FLOAT"}}}, {"name": "model/780/Conv2D", "op": "Conv2D", "input": ["model/777/BiasAdd", "model/780/Conv2D/ReadVariableOp"], "device": "/device:CPU:0", "attr": {"use_cudnn_on_gpu": {"b": true}, "padding": {"s": "VkFMSUQ="}, "dilations": {"list": {"i": ["1", "1", "1", "1"]}}, "strides": {"list": {"i": ["1", "1", "1", "1"]}}, "explicit_paddings": {"list": {}}, "T": {"type": "DT_FLOAT"}, "data_format": {"s": "TkNIVw=="}}}, {"name": "model/780/BiasAdd", "op": "BiasAdd", "input": ["model/780/Conv2D", "model/780/BiasAdd/ReadVariableOp"], "attr": {"T": {"type": "DT_FLOAT"}, "data_format": {"s": "TkNIVw=="}}}, {"name": "model/590/Sigmoid", "op": "Sigmoid", "input": ["model/780/BiasAdd"], "attr": {"T": {"type": "DT_FLOAT"}}}, {"name": "model/591/mul", "op": "Mul", "input": ["model/780/BiasAdd", "model/590/Sigmoid"], "attr": {"T": {"type": "DT_FLOAT"}}}, {"name": "model/592/Pad", "op": "Pad", "input": ["model/591/mul", "model/592/Pad/paddings"], "attr": {"Tpaddings": {"type": "DT_INT32"}, "T": {"type": "DT_FLOAT"}}}, {"name": "model/783/transpose", "op": "Transpose", "input": ["model/592/Pad", "model/783/transpose/perm"], "attr": {"Tperm": {"type": "DT_INT32"}, "T": {"type": "DT_FLOAT"}}}, {"name": "model/783/depthwise", "op": "DepthwiseConv2dNative", "input": ["model/783/transpose", "model/783/depthwise/ReadVariableOp"], "attr": {"data_format": {"s": "TkhXQw=="}, "padding": {"s": "VkFMSUQ="}, "explicit_paddings": {"list": {}}, "dilations": {"list": {"i": ["1", "1", "1", "1"]}}, "strides": {"list": {"i": ["1", "1", "1", "1"]}}, "T": {"type": "DT_FLOAT"}}}, {"name": "model/783/transpose_1", "op": "Transpose", "input": ["model/783/depthwise", "model/783/transpose_1/perm"], "attr": {"T": {"type": "DT_FLOAT"}, "Tperm": {"type": "DT_INT32"}}}, {"name": "model/783/BiasAdd", "op": "BiasAdd", "input": ["model/783/transpose_1", "model/783/BiasAdd/ReadVariableOp"], "attr": {"data_format": {"s": "TkNIVw=="}, "T": {"type": "DT_FLOAT"}}}, {"name": "model/595/Sigmoid", "op": "Sigmoid", "input": ["model/783/BiasAdd"], "attr": {"T": {"type": "DT_FLOAT"}}}, {"name": "model/596/mul", "op": "Mul", "input": ["model/783/BiasAdd", "model/595/Sigmoid"], "attr": {"T": {"type": "DT_FLOAT"}}}, {"name": "model/597/Mean", "op": "Mean", "input": ["model/596/mul", "model/597/Mean/reduction_indices"], "attr": {"keep_dims": {"b": false}, "T": {"type": "DT_FLOAT"}, "Tidx": {"type": "DT_INT32"}}}, {"name": "model/597_EXPAND1/ExpandDims", "op": "ExpandDims", "input": ["model/597/Mean", "model/597_EXPAND1/ExpandDims/dim"], "attr": {"T": {"type": "DT_FLOAT"}, "Tdim": {"type": "DT_INT32"}}}, {"name": "model/597_EXPAND2/ExpandDims", "op": "ExpandDims", "input": ["model/597_EXPAND1/ExpandDims", "model/597_EXPAND2/ExpandDims/dim"], "attr": {"Tdim": {"type": "DT_INT32"}, "T": {"type": "DT_FLOAT"}}}, {"name": "model/598/Conv2D", "op": "Conv2D", "input": ["model/597_EXPAND2/ExpandDims", "model/598/Conv2D/ReadVariableOp"], "device": "/device:CPU:0", "attr": {"data_format": {"s": "TkNIVw=="}, "strides": {"list": {"i": ["1", "1", "1", "1"]}}, "dilations": {"list": {"i": ["1", "1", "1", "1"]}}, "use_cudnn_on_gpu": {"b": true}, "T": {"type": "DT_FLOAT"}, "explicit_paddings": {"list": {}}, "padding": {"s": "VkFMSUQ="}}}, {"name": "model/598/BiasAdd", "op": "BiasAdd", "input": ["model/598/Conv2D", "model/598/BiasAdd/ReadVariableOp"], "attr": {"data_format": {"s": "TkNIVw=="}, "T": {"type": "DT_FLOAT"}}}, {"name": "model/599/Sigmoid", "op": "Sigmoid", "input": ["model/598/BiasAdd"], "attr": {"T": {"type": "DT_FLOAT"}}}, {"name": "model/600/mul", "op": "Mul", "input": ["model/598/BiasAdd", "model/599/Sigmoid"], "attr": {"T": {"type": "DT_FLOAT"}}}, {"name": "model/601/Conv2D", "op": "Conv2D", "input": ["model/600/mul", "model/601/Conv2D/ReadVariableOp"], "device": "/device:CPU:0", "attr": {"use_cudnn_on_gpu": {"b": true}, "explicit_paddings": {"list": {}}, "T": {"type": "DT_FLOAT"}, "data_format": {"s": "TkNIVw=="}, "dilations": {"list": {"i": ["1", "1", "1", "1"]}}, "padding": {"s": "VkFMSUQ="}, "strides": {"list": {"i": ["1", "1", "1", "1"]}}}}, {"name": "model/601/BiasAdd", "op": "BiasAdd", "input": ["model/601/Conv2D", "model/601/BiasAdd/ReadVariableOp"], "attr": {"T": {"type": "DT_FLOAT"}, "data_format": {"s": "TkNIVw=="}}}, {"name": "model/602/Sigmoid", "op": "Sigmoid", "input": ["model/601/BiasAdd"], "attr": {"T": {"type": "DT_FLOAT"}}}, {"name": "model/603/mul", "op": "Mul", "input": ["model/602/Sigmoid", "model/596/mul"], "attr": {"T": {"type": "DT_FLOAT"}}}, {"name": "model/786/Conv2D", "op": "Conv2D", "input": ["model/603/mul", "model/786/Conv2D/ReadVariableOp"], "device": "/device:CPU:0", "attr": {"strides": {"list": {"i": ["1", "1", "1", "1"]}}, "dilations": {"list": {"i": ["1", "1", "1", "1"]}}, "explicit_paddings": {"list": {}}, "use_cudnn_on_gpu": {"b": true}, "T": {"type": "DT_FLOAT"}, "data_format": {"s": "TkNIVw=="}, "padding": {"s": "VkFMSUQ="}}}, {"name": "model/786/BiasAdd", "op": "BiasAdd", "input": ["model/786/Conv2D", "model/786/BiasAdd/ReadVariableOp"], "attr": {"data_format": {"s": "TkNIVw=="}, "T": {"type": "DT_FLOAT"}}}, {"name": "model/606/add", "op": "AddV2", "input": ["model/786/BiasAdd", "model/777/BiasAdd"], "attr": {"T": {"type": "DT_FLOAT"}}}, {"name": "model/789/Conv2D", "op": "Conv2D", "input": ["model/606/add", "model/789/Conv2D/ReadVariableOp"], "device": "/device:CPU:0", "attr": {"use_cudnn_on_gpu": {"b": true}, "data_format": {"s": "TkNIVw=="}, "strides": {"list": {"i": ["1", "1", "1", "1"]}}, "dilations": {"list": {"i": ["1", "1", "1", "1"]}}, "T": {"type": "DT_FLOAT"}, "explicit_paddings": {"list": {}}, "padding": {"s": "VkFMSUQ="}}}, {"name": "model/789/BiasAdd", "op": "BiasAdd", "input": ["model/789/Conv2D", "model/789/BiasAdd/ReadVariableOp"], "attr": {"data_format": {"s": "TkNIVw=="}, "T": {"type": "DT_FLOAT"}}}, {"name": "model/609/Sigmoid", "op": "Sigmoid", "input": ["model/789/BiasAdd"], "attr": {"T": {"type": "DT_FLOAT"}}}, {"name": "model/610/mul", "op": "Mul", "input": ["model/789/BiasAdd", "model/609/Sigmoid"], "attr": {"T": {"type": "DT_FLOAT"}}}, {"name": "model/611/Pad", "op": "Pad", "input": ["model/610/mul", "model/611/Pad/paddings"], "attr": {"Tpaddings": {"type": "DT_INT32"}, "T": {"type": "DT_FLOAT"}}}, {"name": "model/792/transpose", "op": "Transpose", "input": ["model/611/Pad", "model/792/transpose/perm"], "attr": {"Tperm": {"type": "DT_INT32"}, "T": {"type": "DT_FLOAT"}}}, {"name": "model/792/depthwise", "op": "DepthwiseConv2dNative", "input": ["model/792/transpose", "model/792/depthwise/ReadVariableOp"], "attr": {"explicit_paddings": {"list": {}}, "data_format": {"s": "TkhXQw=="}, "dilations": {"list": {"i": ["1", "1", "1", "1"]}}, "padding": {"s": "VkFMSUQ="}, "T": {"type": "DT_FLOAT"}, "strides": {"list": {"i": ["1", "1", "1", "1"]}}}}, {"name": "model/792/transpose_1", "op": "Transpose", "input": ["model/792/depthwise", "model/792/transpose_1/perm"], "attr": {"Tperm": {"type": "DT_INT32"}, "T": {"type": "DT_FLOAT"}}}, {"name": "model/792/BiasAdd", "op": "BiasAdd", "input": ["model/792/transpose_1", "model/792/BiasAdd/ReadVariableOp"], "attr": {"data_format": {"s": "TkNIVw=="}, "T": {"type": "DT_FLOAT"}}}, {"name": "model/614/Sigmoid", "op": "Sigmoid", "input": ["model/792/BiasAdd"], "attr": {"T": {"type": "DT_FLOAT"}}}, {"name": "model/615/mul", "op": "Mul", "input": ["model/792/BiasAdd", "model/614/Sigmoid"], "attr": {"T": {"type": "DT_FLOAT"}}}, {"name": "model/616/Mean", "op": "Mean", "input": ["model/615/mul", "model/616/Mean/reduction_indices"], "attr": {"T": {"type": "DT_FLOAT"}, "keep_dims": {"b": false}, "Tidx": {"type": "DT_INT32"}}}, {"name": "model/616_EXPAND1/ExpandDims", "op": "ExpandDims", "input": ["model/616/Mean", "model/616_EXPAND1/ExpandDims/dim"], "attr": {"T": {"type": "DT_FLOAT"}, "Tdim": {"type": "DT_INT32"}}}, {"name": "model/616_EXPAND2/ExpandDims", "op": "ExpandDims", "input": ["model/616_EXPAND1/ExpandDims", "model/616_EXPAND2/ExpandDims/dim"], "attr": {"T": {"type": "DT_FLOAT"}, "Tdim": {"type": "DT_INT32"}}}, {"name": "model/617/Conv2D", "op": "Conv2D", "input": ["model/616_EXPAND2/ExpandDims", "model/617/Conv2D/ReadVariableOp"], "device": "/device:CPU:0", "attr": {"explicit_paddings": {"list": {}}, "T": {"type": "DT_FLOAT"}, "strides": {"list": {"i": ["1", "1", "1", "1"]}}, "use_cudnn_on_gpu": {"b": true}, "data_format": {"s": "TkNIVw=="}, "padding": {"s": "VkFMSUQ="}, "dilations": {"list": {"i": ["1", "1", "1", "1"]}}}}, {"name": "model/617/BiasAdd", "op": "BiasAdd", "input": ["model/617/Conv2D", "model/617/BiasAdd/ReadVariableOp"], "attr": {"T": {"type": "DT_FLOAT"}, "data_format": {"s": "TkNIVw=="}}}, {"name": "model/618/Sigmoid", "op": "Sigmoid", "input": ["model/617/BiasAdd"], "attr": {"T": {"type": "DT_FLOAT"}}}, {"name": "model/619/mul", "op": "Mul", "input": ["model/617/BiasAdd", "model/618/Sigmoid"], "attr": {"T": {"type": "DT_FLOAT"}}}, {"name": "model/620/Conv2D", "op": "Conv2D", "input": ["model/619/mul", "model/620/Conv2D/ReadVariableOp"], "device": "/device:CPU:0", "attr": {"use_cudnn_on_gpu": {"b": true}, "explicit_paddings": {"list": {}}, "padding": {"s": "VkFMSUQ="}, "data_format": {"s": "TkNIVw=="}, "strides": {"list": {"i": ["1", "1", "1", "1"]}}, "dilations": {"list": {"i": ["1", "1", "1", "1"]}}, "T": {"type": "DT_FLOAT"}}}, {"name": "model/620/BiasAdd", "op": "BiasAdd", "input": ["model/620/Conv2D", "model/620/BiasAdd/ReadVariableOp"], "attr": {"data_format": {"s": "TkNIVw=="}, "T": {"type": "DT_FLOAT"}}}, {"name": "model/621/Sigmoid", "op": "Sigmoid", "input": ["model/620/BiasAdd"], "attr": {"T": {"type": "DT_FLOAT"}}}, {"name": "model/622/mul", "op": "Mul", "input": ["model/621/Sigmoid", "model/615/mul"], "attr": {"T": {"type": "DT_FLOAT"}}}, {"name": "model/795/Conv2D", "op": "Conv2D", "input": ["model/622/mul", "model/795/Conv2D/ReadVariableOp"], "device": "/device:CPU:0", "attr": {"explicit_paddings": {"list": {}}, "use_cudnn_on_gpu": {"b": true}, "T": {"type": "DT_FLOAT"}, "strides": {"list": {"i": ["1", "1", "1", "1"]}}, "data_format": {"s": "TkNIVw=="}, "dilations": {"list": {"i": ["1", "1", "1", "1"]}}, "padding": {"s": "VkFMSUQ="}}}, {"name": "model/795/BiasAdd", "op": "BiasAdd", "input": ["model/795/Conv2D", "model/795/BiasAdd/ReadVariableOp"], "attr": {"T": {"type": "DT_FLOAT"}, "data_format": {"s": "TkNIVw=="}}}, {"name": "model/625/add", "op": "AddV2", "input": ["model/795/BiasAdd", "model/606/add"], "attr": {"T": {"type": "DT_FLOAT"}}}, {"name": "model/798/Conv2D", "op": "Conv2D", "input": ["model/625/add", "model/798/Conv2D/ReadVariableOp"], "device": "/device:CPU:0", "attr": {"explicit_paddings": {"list": {}}, "strides": {"list": {"i": ["1", "1", "1", "1"]}}, "dilations": {"list": {"i": ["1", "1", "1", "1"]}}, "padding": {"s": "VkFMSUQ="}, "use_cudnn_on_gpu": {"b": true}, "data_format": {"s": "TkNIVw=="}, "T": {"type": "DT_FLOAT"}}}, {"name": "model/798/BiasAdd", "op": "BiasAdd", "input": ["model/798/Conv2D", "model/798/BiasAdd/ReadVariableOp"], "attr": {"data_format": {"s": "TkNIVw=="}, "T": {"type": "DT_FLOAT"}}}, {"name": "model/628/Sigmoid", "op": "Sigmoid", "input": ["model/798/BiasAdd"], "attr": {"T": {"type": "DT_FLOAT"}}}, {"name": "model/629/mul", "op": "Mul", "input": ["model/798/BiasAdd", "model/628/Sigmoid"], "attr": {"T": {"type": "DT_FLOAT"}}}, {"name": "model/630/Pad", "op": "Pad", "input": ["model/629/mul", "model/630/Pad/paddings"], "attr": {"T": {"type": "DT_FLOAT"}, "Tpaddings": {"type": "DT_INT32"}}}, {"name": "model/801/transpose", "op": "Transpose", "input": ["model/630/Pad", "model/801/transpose/perm"], "attr": {"T": {"type": "DT_FLOAT"}, "Tperm": {"type": "DT_INT32"}}}, {"name": "model/801/depthwise", "op": "DepthwiseConv2dNative", "input": ["model/801/transpose", "model/801/depthwise/ReadVariableOp"], "attr": {"strides": {"list": {"i": ["1", "1", "1", "1"]}}, "padding": {"s": "VkFMSUQ="}, "dilations": {"list": {"i": ["1", "1", "1", "1"]}}, "data_format": {"s": "TkhXQw=="}, "T": {"type": "DT_FLOAT"}, "explicit_paddings": {"list": {}}}}, {"name": "model/801/transpose_1", "op": "Transpose", "input": ["model/801/depthwise", "model/801/transpose_1/perm"], "attr": {"Tperm": {"type": "DT_INT32"}, "T": {"type": "DT_FLOAT"}}}, {"name": "model/801/BiasAdd", "op": "BiasAdd", "input": ["model/801/transpose_1", "model/801/BiasAdd/ReadVariableOp"], "attr": {"T": {"type": "DT_FLOAT"}, "data_format": {"s": "TkNIVw=="}}}, {"name": "model/633/Sigmoid", "op": "Sigmoid", "input": ["model/801/BiasAdd"], "attr": {"T": {"type": "DT_FLOAT"}}}, {"name": "model/634/mul", "op": "Mul", "input": ["model/801/BiasAdd", "model/633/Sigmoid"], "attr": {"T": {"type": "DT_FLOAT"}}}, {"name": "model/635/Mean", "op": "Mean", "input": ["model/634/mul", "model/635/Mean/reduction_indices"], "attr": {"keep_dims": {"b": false}, "T": {"type": "DT_FLOAT"}, "Tidx": {"type": "DT_INT32"}}}, {"name": "model/635_EXPAND1/ExpandDims", "op": "ExpandDims", "input": ["model/635/Mean", "model/635_EXPAND1/ExpandDims/dim"], "attr": {"Tdim": {"type": "DT_INT32"}, "T": {"type": "DT_FLOAT"}}}, {"name": "model/635_EXPAND2/ExpandDims", "op": "ExpandDims", "input": ["model/635_EXPAND1/ExpandDims", "model/635_EXPAND2/ExpandDims/dim"], "attr": {"T": {"type": "DT_FLOAT"}, "Tdim": {"type": "DT_INT32"}}}, {"name": "model/636/Conv2D", "op": "Conv2D", "input": ["model/635_EXPAND2/ExpandDims", "model/636/Conv2D/ReadVariableOp"], "device": "/device:CPU:0", "attr": {"strides": {"list": {"i": ["1", "1", "1", "1"]}}, "T": {"type": "DT_FLOAT"}, "use_cudnn_on_gpu": {"b": true}, "explicit_paddings": {"list": {}}, "data_format": {"s": "TkNIVw=="}, "dilations": {"list": {"i": ["1", "1", "1", "1"]}}, "padding": {"s": "VkFMSUQ="}}}, {"name": "model/636/BiasAdd", "op": "BiasAdd", "input": ["model/636/Conv2D", "model/636/BiasAdd/ReadVariableOp"], "attr": {"T": {"type": "DT_FLOAT"}, "data_format": {"s": "TkNIVw=="}}}, {"name": "model/637/Sigmoid", "op": "Sigmoid", "input": ["model/636/BiasAdd"], "attr": {"T": {"type": "DT_FLOAT"}}}, {"name": "model/638/mul", "op": "Mul", "input": ["model/636/BiasAdd", "model/637/Sigmoid"], "attr": {"T": {"type": "DT_FLOAT"}}}, {"name": "model/639/Conv2D", "op": "Conv2D", "input": ["model/638/mul", "model/639/Conv2D/ReadVariableOp"], "device": "/device:CPU:0", "attr": {"use_cudnn_on_gpu": {"b": true}, "data_format": {"s": "TkNIVw=="}, "explicit_paddings": {"list": {}}, "T": {"type": "DT_FLOAT"}, "dilations": {"list": {"i": ["1", "1", "1", "1"]}}, "strides": {"list": {"i": ["1", "1", "1", "1"]}}, "padding": {"s": "VkFMSUQ="}}}, {"name": "model/639/BiasAdd", "op": "BiasAdd", "input": ["model/639/Conv2D", "model/639/BiasAdd/ReadVariableOp"], "attr": {"data_format": {"s": "TkNIVw=="}, "T": {"type": "DT_FLOAT"}}}, {"name": "model/640/Sigmoid", "op": "Sigmoid", "input": ["model/639/BiasAdd"], "attr": {"T": {"type": "DT_FLOAT"}}}, {"name": "model/641/mul", "op": "Mul", "input": ["model/640/Sigmoid", "model/634/mul"], "attr": {"T": {"type": "DT_FLOAT"}}}, {"name": "model/804/Conv2D", "op": "Conv2D", "input": ["model/641/mul", "model/804/Conv2D/ReadVariableOp"], "device": "/device:CPU:0", "attr": {"T": {"type": "DT_FLOAT"}, "dilations": {"list": {"i": ["1", "1", "1", "1"]}}, "explicit_paddings": {"list": {}}, "padding": {"s": "VkFMSUQ="}, "strides": {"list": {"i": ["1", "1", "1", "1"]}}, "data_format": {"s": "TkNIVw=="}, "use_cudnn_on_gpu": {"b": true}}}, {"name": "model/804/BiasAdd", "op": "BiasAdd", "input": ["model/804/Conv2D", "model/804/BiasAdd/ReadVariableOp"], "attr": {"data_format": {"s": "TkNIVw=="}, "T": {"type": "DT_FLOAT"}}}, {"name": "model/644/add", "op": "AddV2", "input": ["model/804/BiasAdd", "model/625/add"], "attr": {"T": {"type": "DT_FLOAT"}}}, {"name": "model/807/Conv2D", "op": "Conv2D", "input": ["model/644/add", "model/807/Conv2D/ReadVariableOp"], "device": "/device:CPU:0", "attr": {"data_format": {"s": "TkNIVw=="}, "dilations": {"list": {"i": ["1", "1", "1", "1"]}}, "use_cudnn_on_gpu": {"b": true}, "strides": {"list": {"i": ["1", "1", "1", "1"]}}, "explicit_paddings": {"list": {}}, "T": {"type": "DT_FLOAT"}, "padding": {"s": "VkFMSUQ="}}}, {"name": "model/807/BiasAdd", "op": "BiasAdd", "input": ["model/807/Conv2D", "model/807/BiasAdd/ReadVariableOp"], "attr": {"T": {"type": "DT_FLOAT"}, "data_format": {"s": "TkNIVw=="}}}, {"name": "model/647/Sigmoid", "op": "Sigmoid", "input": ["model/807/BiasAdd"], "attr": {"T": {"type": "DT_FLOAT"}}}, {"name": "model/648/mul", "op": "Mul", "input": ["model/807/BiasAdd", "model/647/Sigmoid"], "attr": {"T": {"type": "DT_FLOAT"}}}, {"name": "model/649/Pad", "op": "Pad", "input": ["model/648/mul", "model/649/Pad/paddings"], "attr": {"Tpaddings": {"type": "DT_INT32"}, "T": {"type": "DT_FLOAT"}}}, {"name": "model/810/transpose", "op": "Transpose", "input": ["model/649/Pad", "model/810/transpose/perm"], "attr": {"Tperm": {"type": "DT_INT32"}, "T": {"type": "DT_FLOAT"}}}, {"name": "model/810/depthwise", "op": "DepthwiseConv2dNative", "input": ["model/810/transpose", "model/810/depthwise/ReadVariableOp"], "attr": {"dilations": {"list": {"i": ["1", "1", "1", "1"]}}, "strides": {"list": {"i": ["1", "1", "1", "1"]}}, "explicit_paddings": {"list": {}}, "padding": {"s": "VkFMSUQ="}, "T": {"type": "DT_FLOAT"}, "data_format": {"s": "TkhXQw=="}}}, {"name": "model/810/transpose_1", "op": "Transpose", "input": ["model/810/depthwise", "model/810/transpose_1/perm"], "attr": {"T": {"type": "DT_FLOAT"}, "Tperm": {"type": "DT_INT32"}}}, {"name": "model/810/BiasAdd", "op": "BiasAdd", "input": ["model/810/transpose_1", "model/810/BiasAdd/ReadVariableOp"], "attr": {"data_format": {"s": "TkNIVw=="}, "T": {"type": "DT_FLOAT"}}}, {"name": "model/652/Sigmoid", "op": "Sigmoid", "input": ["model/810/BiasAdd"], "attr": {"T": {"type": "DT_FLOAT"}}}, {"name": "model/653/mul", "op": "Mul", "input": ["model/810/BiasAdd", "model/652/Sigmoid"], "attr": {"T": {"type": "DT_FLOAT"}}}, {"name": "model/654/Mean", "op": "Mean", "input": ["model/653/mul", "model/654/Mean/reduction_indices"], "attr": {"keep_dims": {"b": false}, "Tidx": {"type": "DT_INT32"}, "T": {"type": "DT_FLOAT"}}}, {"name": "model/654_EXPAND1/ExpandDims", "op": "ExpandDims", "input": ["model/654/Mean", "model/654_EXPAND1/ExpandDims/dim"], "attr": {"T": {"type": "DT_FLOAT"}, "Tdim": {"type": "DT_INT32"}}}, {"name": "model/654_EXPAND2/ExpandDims", "op": "ExpandDims", "input": ["model/654_EXPAND1/ExpandDims", "model/654_EXPAND2/ExpandDims/dim"], "attr": {"T": {"type": "DT_FLOAT"}, "Tdim": {"type": "DT_INT32"}}}, {"name": "model/655/Conv2D", "op": "Conv2D", "input": ["model/654_EXPAND2/ExpandDims", "model/655/Conv2D/ReadVariableOp"], "device": "/device:CPU:0", "attr": {"padding": {"s": "VkFMSUQ="}, "T": {"type": "DT_FLOAT"}, "data_format": {"s": "TkNIVw=="}, "dilations": {"list": {"i": ["1", "1", "1", "1"]}}, "explicit_paddings": {"list": {}}, "strides": {"list": {"i": ["1", "1", "1", "1"]}}, "use_cudnn_on_gpu": {"b": true}}}, {"name": "model/655/BiasAdd", "op": "BiasAdd", "input": ["model/655/Conv2D", "model/655/BiasAdd/ReadVariableOp"], "attr": {"T": {"type": "DT_FLOAT"}, "data_format": {"s": "TkNIVw=="}}}, {"name": "model/656/Sigmoid", "op": "Sigmoid", "input": ["model/655/BiasAdd"], "attr": {"T": {"type": "DT_FLOAT"}}}, {"name": "model/657/mul", "op": "Mul", "input": ["model/655/BiasAdd", "model/656/Sigmoid"], "attr": {"T": {"type": "DT_FLOAT"}}}, {"name": "model/658/Conv2D", "op": "Conv2D", "input": ["model/657/mul", "model/658/Conv2D/ReadVariableOp"], "device": "/device:CPU:0", "attr": {"dilations": {"list": {"i": ["1", "1", "1", "1"]}}, "strides": {"list": {"i": ["1", "1", "1", "1"]}}, "padding": {"s": "VkFMSUQ="}, "explicit_paddings": {"list": {}}, "data_format": {"s": "TkNIVw=="}, "use_cudnn_on_gpu": {"b": true}, "T": {"type": "DT_FLOAT"}}}, {"name": "model/658/BiasAdd", "op": "BiasAdd", "input": ["model/658/Conv2D", "model/658/BiasAdd/ReadVariableOp"], "attr": {"T": {"type": "DT_FLOAT"}, "data_format": {"s": "TkNIVw=="}}}, {"name": "model/659/Sigmoid", "op": "Sigmoid", "input": ["model/658/BiasAdd"], "attr": {"T": {"type": "DT_FLOAT"}}}, {"name": "model/660/mul", "op": "Mul", "input": ["model/659/Sigmoid", "model/653/mul"], "attr": {"T": {"type": "DT_FLOAT"}}}, {"name": "model/813/Conv2D", "op": "Conv2D", "input": ["model/660/mul", "model/813/Conv2D/ReadVariableOp"], "device": "/device:CPU:0", "attr": {"T": {"type": "DT_FLOAT"}, "use_cudnn_on_gpu": {"b": true}, "dilations": {"list": {"i": ["1", "1", "1", "1"]}}, "strides": {"list": {"i": ["1", "1", "1", "1"]}}, "data_format": {"s": "TkNIVw=="}, "padding": {"s": "VkFMSUQ="}, "explicit_paddings": {"list": {}}}}, {"name": "model/813/BiasAdd", "op": "BiasAdd", "input": ["model/813/Conv2D", "model/813/BiasAdd/ReadVariableOp"], "attr": {"T": {"type": "DT_FLOAT"}, "data_format": {"s": "TkNIVw=="}}}, {"name": "model/816/Conv2D", "op": "Conv2D", "input": ["model/813/BiasAdd", "model/816/Conv2D/ReadVariableOp"], "device": "/device:CPU:0", "attr": {"padding": {"s": "VkFMSUQ="}, "T": {"type": "DT_FLOAT"}, "explicit_paddings": {"list": {}}, "use_cudnn_on_gpu": {"b": true}, "dilations": {"list": {"i": ["1", "1", "1", "1"]}}, "strides": {"list": {"i": ["1", "1", "1", "1"]}}, "data_format": {"s": "TkNIVw=="}}}, {"name": "model/816/BiasAdd", "op": "BiasAdd", "input": ["model/816/Conv2D", "model/816/BiasAdd/ReadVariableOp"], "attr": {"T": {"type": "DT_FLOAT"}, "data_format": {"s": "TkNIVw=="}}}, {"name": "model/665/Sigmoid", "op": "Sigmoid", "input": ["model/816/BiasAdd"], "attr": {"T": {"type": "DT_FLOAT"}}}, {"name": "model/666/mul", "op": "Mul", "input": ["model/816/BiasAdd", "model/665/Sigmoid"], "attr": {"T": {"type": "DT_FLOAT"}}}, {"name": "model/667/Mean", "op": "Mean", "input": ["model/666/mul", "model/667/Mean/reduction_indices"], "attr": {"Tidx": {"type": "DT_INT32"}, "T": {"type": "DT_FLOAT"}, "keep_dims": {"b": false}}}, {"name": "model/667_EXPAND1/ExpandDims", "op": "ExpandDims", "input": ["model/667/Mean", "model/667_EXPAND1/ExpandDims/dim"], "attr": {"T": {"type": "DT_FLOAT"}, "Tdim": {"type": "DT_INT32"}}}, {"name": "model/667_EXPAND2/ExpandDims", "op": "ExpandDims", "input": ["model/667_EXPAND1/ExpandDims", "model/667_EXPAND2/ExpandDims/dim"], "attr": {"T": {"type": "DT_FLOAT"}, "Tdim": {"type": "DT_INT32"}}}, {"name": "model/668/Shape", "op": "Shape", "input": ["model/667_EXPAND2/ExpandDims"], "attr": {"out_type": {"type": "DT_INT32"}, "T": {"type": "DT_FLOAT"}}}, {"name": "model/668/strided_slice", "op": "StridedSlice", "input": ["model/668/Shape", "model/668/strided_slice/stack", "model/668/strided_slice/stack_1", "model/668/strided_slice/stack_2"], "attr": {"ellipsis_mask": {"i": "0"}, "end_mask": {"i": "0"}, "new_axis_mask": {"i": "0"}, "shrink_axis_mask": {"i": "1"}, "Index": {"type": "DT_INT32"}, "T": {"type": "DT_INT32"}, "begin_mask": {"i": "0"}}}, {"name": "model/668/Reshape/shape", "op": "Pack", "input": ["model/668/strided_slice", "model/668/Reshape/shape/1"], "attr": {"axis": {"i": "0"}, "T": {"type": "DT_INT32"}, "N": {"i": "2"}}}, {"name": "model/668/Reshape", "op": "Reshape", "input": ["model/667_EXPAND2/ExpandDims", "model/668/Reshape/shape"], "attr": {"Tshape": {"type": "DT_INT32"}, "T": {"type": "DT_FLOAT"}}}, {"name": "model/669/BiasAdd", "op": "_FusedMatMul", "input": ["model/668/Reshape", "model/669/MatMul/ReadVariableOp", "model/669/BiasAdd/ReadVariableOp"], "device": "/device:CPU:0", "attr": {"transpose_b": {"b": false}, "T": {"type": "DT_FLOAT"}, "transpose_a": {"b": false}, "num_args": {"i": "1"}, "fused_ops": {"list": {"s": ["Qmlhc0FkZA=="]}}, "epsilon": {"f": 0.0}}}, {"name": "model/670/BiasAdd", "op": "_FusedMatMul", "input": ["model/669/BiasAdd", "model/670/MatMul/ReadVariableOp", "model/670/BiasAdd/ReadVariableOp"], "device": "/device:CPU:0", "attr": {"fused_ops": {"list": {"s": ["Qmlhc0FkZA=="]}}, "num_args": {"i": "1"}, "T": {"type": "DT_FLOAT"}, "transpose_a": {"b": false}, "transpose_b": {"b": false}, "epsilon": {"f": 0.0}}}, {"name": "model/output_0/Sigmoid", "op": "Sigmoid", "input": ["model/670/BiasAdd"], "attr": {"T": {"type": "DT_FLOAT"}}}, {"name": "Identity", "op": "Identity", "input": ["model/output_0/Sigmoid"], "attr": {"T": {"type": "DT_FLOAT"}}}], "library": {}, "versions": {"producer": 561}}, "weightsManifest": [{"paths": ["group1-shard1of4.bin", "group1-shard2of4.bin", "group1-shard3of4.bin", "group1-shard4of4.bin"], "weights": [{"name": "model/654/Mean/reduction_indices", "shape": [2], "dtype": "int32"}, {"name": "model/654_EXPAND1/ExpandDims/dim", "shape": [], "dtype": "int32"}, {"name": "model/654_EXPAND2/ExpandDims/dim", "shape": [], "dtype": "int32"}, {"name": "model/655/Conv2D/ReadVariableOp", "shape": [1, 1, 1152, 48], "dtype": "float32"}, {"name": "model/655/BiasAdd/ReadVariableOp", "shape": [48], "dtype": "float32"}, {"name": "model/658/Conv2D/ReadVariableOp", "shape": [1, 1, 48, 1152], "dtype": "float32"}, {"name": "model/658/BiasAdd/ReadVariableOp", "shape": [1152], "dtype": "float32"}, {"name": "model/635/Mean/reduction_indices", "shape": [2], "dtype": "int32"}, {"name": "model/635_EXPAND1/ExpandDims/dim", "shape": [], "dtype": "int32"}, {"name": "model/635_EXPAND2/ExpandDims/dim", "shape": [], "dtype": "int32"}, {"name": "model/636/Conv2D/ReadVariableOp", "shape": [1, 1, 1152, 48], "dtype": "float32"}, {"name": "model/636/BiasAdd/ReadVariableOp", "shape": [48], "dtype": "float32"}, {"name": "model/639/Conv2D/ReadVariableOp", "shape": [1, 1, 48, 1152], "dtype": "float32"}, {"name": "model/639/BiasAdd/ReadVariableOp", "shape": [1152], "dtype": "float32"}, {"name": "model/798/Conv2D/ReadVariableOp", "shape": [1, 1, 192, 1152], "dtype": "float32"}, {"name": "model/798/BiasAdd/ReadVariableOp", "shape": [1152], "dtype": "float32"}, {"name": "model/630/Pad/paddings", "shape": [4, 2], "dtype": "int32"}, {"name": "model/801/transpose/perm", "shape": [4], "dtype": "int32"}, {"name": "model/801/depthwise/ReadVariableOp", "shape": [5, 5, 1152, 1], "dtype": "float32"}, {"name": "model/801/transpose_1/perm", "shape": [4], "dtype": "int32"}, {"name": "model/801/BiasAdd/ReadVariableOp", "shape": [1152], "dtype": "float32"}, {"name": "model/804/Conv2D/ReadVariableOp", "shape": [1, 1, 1152, 192], "dtype": "float32"}, {"name": "model/804/BiasAdd/ReadVariableOp", "shape": [192], "dtype": "float32"}, {"name": "model/616/Mean/reduction_indices", "shape": [2], "dtype": "int32"}, {"name": "model/616_EXPAND1/ExpandDims/dim", "shape": [], "dtype": "int32"}, {"name": "model/616_EXPAND2/ExpandDims/dim", "shape": [], "dtype": "int32"}, {"name": "model/617/Conv2D/ReadVariableOp", "shape": [1, 1, 1152, 48], "dtype": "float32"}, {"name": "model/617/BiasAdd/ReadVariableOp", "shape": [48], "dtype": "float32"}, {"name": "model/620/Conv2D/ReadVariableOp", "shape": [1, 1, 48, 1152], "dtype": "float32"}, {"name": "model/620/BiasAdd/ReadVariableOp", "shape": [1152], "dtype": "float32"}, {"name": "model/789/Conv2D/ReadVariableOp", "shape": [1, 1, 192, 1152], "dtype": "float32"}, {"name": "model/789/BiasAdd/ReadVariableOp", "shape": [1152], "dtype": "float32"}, {"name": "model/611/Pad/paddings", "shape": [4, 2], "dtype": "int32"}, {"name": "model/792/transpose/perm", "shape": [4], "dtype": "int32"}, {"name": "model/792/depthwise/ReadVariableOp", "shape": [5, 5, 1152, 1], "dtype": "float32"}, {"name": "model/792/transpose_1/perm", "shape": [4], "dtype": "int32"}, {"name": "model/792/BiasAdd/ReadVariableOp", "shape": [1152], "dtype": "float32"}, {"name": "model/795/Conv2D/ReadVariableOp", "shape": [1, 1, 1152, 192], "dtype": "float32"}, {"name": "model/795/BiasAdd/ReadVariableOp", "shape": [192], "dtype": "float32"}, {"name": "model/597/Mean/reduction_indices", "shape": [2], "dtype": "int32"}, {"name": "model/597_EXPAND1/ExpandDims/dim", "shape": [], "dtype": "int32"}, {"name": "model/597_EXPAND2/ExpandDims/dim", "shape": [], "dtype": "int32"}, {"name": "model/598/Conv2D/ReadVariableOp", "shape": [1, 1, 1152, 48], "dtype": "float32"}, {"name": "model/598/BiasAdd/ReadVariableOp", "shape": [48], "dtype": "float32"}, {"name": "model/601/Conv2D/ReadVariableOp", "shape": [1, 1, 48, 1152], "dtype": "float32"}, {"name": "model/601/BiasAdd/ReadVariableOp", "shape": [1152], "dtype": "float32"}, {"name": "model/780/Conv2D/ReadVariableOp", "shape": [1, 1, 192, 1152], "dtype": "float32"}, {"name": "model/780/BiasAdd/ReadVariableOp", "shape": [1152], "dtype": "float32"}, {"name": "model/592/Pad/paddings", "shape": [4, 2], "dtype": "int32"}, {"name": "model/783/transpose/perm", "shape": [4], "dtype": "int32"}, {"name": "model/783/depthwise/ReadVariableOp", "shape": [5, 5, 1152, 1], "dtype": "float32"}, {"name": "model/783/transpose_1/perm", "shape": [4], "dtype": "int32"}, {"name": "model/783/BiasAdd/ReadVariableOp", "shape": [1152], "dtype": "float32"}, {"name": "model/786/Conv2D/ReadVariableOp", "shape": [1, 1, 1152, 192], "dtype": "float32"}, {"name": "model/786/BiasAdd/ReadVariableOp", "shape": [192], "dtype": "float32"}, {"name": "model/579/Mean/reduction_indices", "shape": [2], "dtype": "int32"}, {"name": "model/579_EXPAND1/ExpandDims/dim", "shape": [], "dtype": "int32"}, {"name": "model/579_EXPAND2/ExpandDims/dim", "shape": [], "dtype": "int32"}, {"name": "model/580/Conv2D/ReadVariableOp", "shape": [1, 1, 672, 28], "dtype": "float32"}, {"name": "model/580/BiasAdd/ReadVariableOp", "shape": [28], "dtype": "float32"}, {"name": "model/583/Conv2D/ReadVariableOp", "shape": [1, 1, 28, 672], "dtype": "float32"}, {"name": "model/583/BiasAdd/ReadVariableOp", "shape": [672], "dtype": "float32"}, {"name": "model/560/Mean/reduction_indices", "shape": [2], "dtype": "int32"}, {"name": "model/560_EXPAND1/ExpandDims/dim", "shape": [], "dtype": "int32"}, {"name": "model/560_EXPAND2/ExpandDims/dim", "shape": [], "dtype": "int32"}, {"name": "model/561/Conv2D/ReadVariableOp", "shape": [1, 1, 672, 28], "dtype": "float32"}, {"name": "model/561/BiasAdd/ReadVariableOp", "shape": [28], "dtype": "float32"}, {"name": "model/564/Conv2D/ReadVariableOp", "shape": [1, 1, 28, 672], "dtype": "float32"}, {"name": "model/564/BiasAdd/ReadVariableOp", "shape": [672], "dtype": "float32"}, {"name": "model/762/Conv2D/ReadVariableOp", "shape": [1, 1, 112, 672], "dtype": "float32"}, {"name": "model/762/BiasAdd/ReadVariableOp", "shape": [672], "dtype": "float32"}, {"name": "model/555/Pad/paddings", "shape": [4, 2], "dtype": "int32"}, {"name": "model/765/transpose/perm", "shape": [4], "dtype": "int32"}, {"name": "model/765/depthwise/ReadVariableOp", "shape": [5, 5, 672, 1], "dtype": "float32"}, {"name": "model/765/transpose_1/perm", "shape": [4], "dtype": "int32"}, {"name": "model/765/BiasAdd/ReadVariableOp", "shape": [672], "dtype": "float32"}, {"name": "model/768/Conv2D/ReadVariableOp", "shape": [1, 1, 672, 112], "dtype": "float32"}, {"name": "model/768/BiasAdd/ReadVariableOp", "shape": [112], "dtype": "float32"}, {"name": "model/541/Mean/reduction_indices", "shape": [2], "dtype": "int32"}, {"name": "model/541_EXPAND1/ExpandDims/dim", "shape": [], "dtype": "int32"}, {"name": "model/541_EXPAND2/ExpandDims/dim", "shape": [], "dtype": "int32"}, {"name": "model/542/Conv2D/ReadVariableOp", "shape": [1, 1, 672, 28], "dtype": "float32"}, {"name": "model/542/BiasAdd/ReadVariableOp", "shape": [28], "dtype": "float32"}, {"name": "model/545/Conv2D/ReadVariableOp", "shape": [1, 1, 28, 672], "dtype": "float32"}, {"name": "model/545/BiasAdd/ReadVariableOp", "shape": [672], "dtype": "float32"}, {"name": "model/753/Conv2D/ReadVariableOp", "shape": [1, 1, 112, 672], "dtype": "float32"}, {"name": "model/753/BiasAdd/ReadVariableOp", "shape": [672], "dtype": "float32"}, {"name": "model/536/Pad/paddings", "shape": [4, 2], "dtype": "int32"}, {"name": "model/756/transpose/perm", "shape": [4], "dtype": "int32"}, {"name": "model/756/depthwise/ReadVariableOp", "shape": [5, 5, 672, 1], "dtype": "float32"}, {"name": "model/756/transpose_1/perm", "shape": [4], "dtype": "int32"}, {"name": "model/756/BiasAdd/ReadVariableOp", "shape": [672], "dtype": "float32"}, {"name": "model/759/Conv2D/ReadVariableOp", "shape": [1, 1, 672, 112], "dtype": "float32"}, {"name": "model/759/BiasAdd/ReadVariableOp", "shape": [112], "dtype": "float32"}, {"name": "model/523/Mean/reduction_indices", "shape": [2], "dtype": "int32"}, {"name": "model/523_EXPAND1/ExpandDims/dim", "shape": [], "dtype": "int32"}, {"name": "model/523_EXPAND2/ExpandDims/dim", "shape": [], "dtype": "int32"}, {"name": "model/524/Conv2D/ReadVariableOp", "shape": [1, 1, 480, 20], "dtype": "float32"}, {"name": "model/524/BiasAdd/ReadVariableOp", "shape": [20], "dtype": "float32"}, {"name": "model/527/Conv2D/ReadVariableOp", "shape": [1, 1, 20, 480], "dtype": "float32"}, {"name": "model/527/BiasAdd/ReadVariableOp", "shape": [480], "dtype": "float32"}, {"name": "model/504/Mean/reduction_indices", "shape": [2], "dtype": "int32"}, {"name": "model/504_EXPAND1/ExpandDims/dim", "shape": [], "dtype": "int32"}, {"name": "model/504_EXPAND2/ExpandDims/dim", "shape": [], "dtype": "int32"}, {"name": "model/505/Conv2D/ReadVariableOp", "shape": [1, 1, 480, 20], "dtype": "float32"}, {"name": "model/505/BiasAdd/ReadVariableOp", "shape": [20], "dtype": "float32"}, {"name": "model/508/Conv2D/ReadVariableOp", "shape": [1, 1, 20, 480], "dtype": "float32"}, {"name": "model/508/BiasAdd/ReadVariableOp", "shape": [480], "dtype": "float32"}, {"name": "model/735/Conv2D/ReadVariableOp", "shape": [1, 1, 80, 480], "dtype": "float32"}, {"name": "model/735/BiasAdd/ReadVariableOp", "shape": [480], "dtype": "float32"}, {"name": "model/499/Pad/paddings", "shape": [4, 2], "dtype": "int32"}, {"name": "model/738/transpose/perm", "shape": [4], "dtype": "int32"}, {"name": "model/738/depthwise/ReadVariableOp", "shape": [3, 3, 480, 1], "dtype": "float32"}, {"name": "model/738/transpose_1/perm", "shape": [4], "dtype": "int32"}, {"name": "model/738/BiasAdd/ReadVariableOp", "shape": [480], "dtype": "float32"}, {"name": "model/741/Conv2D/ReadVariableOp", "shape": [1, 1, 480, 80], "dtype": "float32"}, {"name": "model/741/BiasAdd/ReadVariableOp", "shape": [80], "dtype": "float32"}, {"name": "model/485/Mean/reduction_indices", "shape": [2], "dtype": "int32"}, {"name": "model/485_EXPAND1/ExpandDims/dim", "shape": [], "dtype": "int32"}, {"name": "model/485_EXPAND2/ExpandDims/dim", "shape": [], "dtype": "int32"}, {"name": "model/486/Conv2D/ReadVariableOp", "shape": [1, 1, 480, 20], "dtype": "float32"}, {"name": "model/486/BiasAdd/ReadVariableOp", "shape": [20], "dtype": "float32"}, {"name": "model/489/Conv2D/ReadVariableOp", "shape": [1, 1, 20, 480], "dtype": "float32"}, {"name": "model/489/BiasAdd/ReadVariableOp", "shape": [480], "dtype": "float32"}, {"name": "model/726/Conv2D/ReadVariableOp", "shape": [1, 1, 80, 480], "dtype": "float32"}, {"name": "model/726/BiasAdd/ReadVariableOp", "shape": [480], "dtype": "float32"}, {"name": "model/480/Pad/paddings", "shape": [4, 2], "dtype": "int32"}, {"name": "model/729/transpose/perm", "shape": [4], "dtype": "int32"}, {"name": "model/729/depthwise/ReadVariableOp", "shape": [3, 3, 480, 1], "dtype": "float32"}, {"name": "model/729/transpose_1/perm", "shape": [4], "dtype": "int32"}, {"name": "model/729/BiasAdd/ReadVariableOp", "shape": [480], "dtype": "float32"}, {"name": "model/732/Conv2D/ReadVariableOp", "shape": [1, 1, 480, 80], "dtype": "float32"}, {"name": "model/732/BiasAdd/ReadVariableOp", "shape": [80], "dtype": "float32"}, {"name": "model/467/Mean/reduction_indices", "shape": [2], "dtype": "int32"}, {"name": "model/467_EXPAND1/ExpandDims/dim", "shape": [], "dtype": "int32"}, {"name": "model/467_EXPAND2/ExpandDims/dim", "shape": [], "dtype": "int32"}, {"name": "model/468/Conv2D/ReadVariableOp", "shape": [1, 1, 240, 10], "dtype": "float32"}, {"name": "model/468/BiasAdd/ReadVariableOp", "shape": [10], "dtype": "float32"}, {"name": "model/471/Conv2D/ReadVariableOp", "shape": [1, 1, 10, 240], "dtype": "float32"}, {"name": "model/471/BiasAdd/ReadVariableOp", "shape": [240], "dtype": "float32"}, {"name": "model/448/Mean/reduction_indices", "shape": [2], "dtype": "int32"}, {"name": "model/448_EXPAND1/ExpandDims/dim", "shape": [], "dtype": "int32"}, {"name": "model/448_EXPAND2/ExpandDims/dim", "shape": [], "dtype": "int32"}, {"name": "model/449/Conv2D/ReadVariableOp", "shape": [1, 1, 240, 10], "dtype": "float32"}, {"name": "model/449/BiasAdd/ReadVariableOp", "shape": [10], "dtype": "float32"}, {"name": "model/452/Conv2D/ReadVariableOp", "shape": [1, 1, 10, 240], "dtype": "float32"}, {"name": "model/452/BiasAdd/ReadVariableOp", "shape": [240], "dtype": "float32"}, {"name": "model/708/Conv2D/ReadVariableOp", "shape": [1, 1, 40, 240], "dtype": "float32"}, {"name": "model/708/BiasAdd/ReadVariableOp", "shape": [240], "dtype": "float32"}, {"name": "model/443/Pad/paddings", "shape": [4, 2], "dtype": "int32"}, {"name": "model/711/transpose/perm", "shape": [4], "dtype": "int32"}, {"name": "model/711/depthwise/ReadVariableOp", "shape": [5, 5, 240, 1], "dtype": "float32"}, {"name": "model/711/transpose_1/perm", "shape": [4], "dtype": "int32"}, {"name": "model/711/BiasAdd/ReadVariableOp", "shape": [240], "dtype": "float32"}, {"name": "model/714/Conv2D/ReadVariableOp", "shape": [1, 1, 240, 40], "dtype": "float32"}, {"name": "model/714/BiasAdd/ReadVariableOp", "shape": [40], "dtype": "float32"}, {"name": "model/430/Mean/reduction_indices", "shape": [2], "dtype": "int32"}, {"name": "model/430_EXPAND1/ExpandDims/dim", "shape": [], "dtype": "int32"}, {"name": "model/430_EXPAND2/ExpandDims/dim", "shape": [], "dtype": "int32"}, {"name": "model/431/Conv2D/ReadVariableOp", "shape": [1, 1, 144, 6], "dtype": "float32"}, {"name": "model/431/BiasAdd/ReadVariableOp", "shape": [6], "dtype": "float32"}, {"name": "model/434/Conv2D/ReadVariableOp", "shape": [1, 1, 6, 144], "dtype": "float32"}, {"name": "model/434/BiasAdd/ReadVariableOp", "shape": [144], "dtype": "float32"}, {"name": "model/411/Mean/reduction_indices", "shape": [2], "dtype": "int32"}, {"name": "model/411_EXPAND1/ExpandDims/dim", "shape": [], "dtype": "int32"}, {"name": "model/411_EXPAND2/ExpandDims/dim", "shape": [], "dtype": "int32"}, {"name": "model/412/Conv2D/ReadVariableOp", "shape": [1, 1, 144, 6], "dtype": "float32"}, {"name": "model/412/BiasAdd/ReadVariableOp", "shape": [6], "dtype": "float32"}, {"name": "model/415/Conv2D/ReadVariableOp", "shape": [1, 1, 6, 144], "dtype": "float32"}, {"name": "model/415/BiasAdd/ReadVariableOp", "shape": [144], "dtype": "float32"}, {"name": "model/690/Conv2D/ReadVariableOp", "shape": [1, 1, 24, 144], "dtype": "float32"}, {"name": "model/690/BiasAdd/ReadVariableOp", "shape": [144], "dtype": "float32"}, {"name": "model/406/Pad/paddings", "shape": [4, 2], "dtype": "int32"}, {"name": "model/693/transpose/perm", "shape": [4], "dtype": "int32"}, {"name": "model/693/depthwise/ReadVariableOp", "shape": [3, 3, 144, 1], "dtype": "float32"}, {"name": "model/693/transpose_1/perm", "shape": [4], "dtype": "int32"}, {"name": "model/693/BiasAdd/ReadVariableOp", "shape": [144], "dtype": "float32"}, {"name": "model/696/Conv2D/ReadVariableOp", "shape": [1, 1, 144, 24], "dtype": "float32"}, {"name": "model/696/BiasAdd/ReadVariableOp", "shape": [24], "dtype": "float32"}, {"name": "model/393/Mean/reduction_indices", "shape": [2], "dtype": "int32"}, {"name": "model/393_EXPAND1/ExpandDims/dim", "shape": [], "dtype": "int32"}, {"name": "model/393_EXPAND2/ExpandDims/dim", "shape": [], "dtype": "int32"}, {"name": "model/394/Conv2D/ReadVariableOp", "shape": [1, 1, 96, 4], "dtype": "float32"}, {"name": "model/394/BiasAdd/ReadVariableOp", "shape": [4], "dtype": "float32"}, {"name": "model/397/Conv2D/ReadVariableOp", "shape": [1, 1, 4, 96], "dtype": "float32"}, {"name": "model/397/BiasAdd/ReadVariableOp", "shape": [96], "dtype": "float32"}, {"name": "model/375/Mean/reduction_indices", "shape": [2], "dtype": "int32"}, {"name": "model/375_EXPAND1/ExpandDims/dim", "shape": [], "dtype": "int32"}, {"name": "model/375_EXPAND2/ExpandDims/dim", "shape": [], "dtype": "int32"}, {"name": "model/376/Conv2D/ReadVariableOp", "shape": [1, 1, 32, 8], "dtype": "float32"}, {"name": "model/376/BiasAdd/ReadVariableOp", "shape": [8], "dtype": "float32"}, {"name": "model/379/Conv2D/ReadVariableOp", "shape": [1, 1, 8, 32], "dtype": "float32"}, {"name": "model/379/BiasAdd/ReadVariableOp", "shape": [32], "dtype": "float32"}, {"name": "model/365/Pad/paddings", "shape": [4, 2], "dtype": "int32"}, {"name": "model/672/Conv2D/ReadVariableOp", "shape": [3, 3, 4, 32], "dtype": "float32"}, {"name": "model/672/BiasAdd/ReadVariableOp", "shape": [32], "dtype": "float32"}, {"name": "model/370/Pad/paddings", "shape": [4, 2], "dtype": "int32"}, {"name": "model/675/transpose/perm", "shape": [4], "dtype": "int32"}, {"name": "model/675/depthwise/ReadVariableOp", "shape": [3, 3, 32, 1], "dtype": "float32"}, {"name": "model/675/transpose_1/perm", "shape": [4], "dtype": "int32"}, {"name": "model/675/BiasAdd/ReadVariableOp", "shape": [32], "dtype": "float32"}, {"name": "model/678/Conv2D/ReadVariableOp", "shape": [1, 1, 32, 16], "dtype": "float32"}, {"name": "model/678/BiasAdd/ReadVariableOp", "shape": [16], "dtype": "float32"}, {"name": "model/681/Conv2D/ReadVariableOp", "shape": [1, 1, 16, 96], "dtype": "float32"}, {"name": "model/681/BiasAdd/ReadVariableOp", "shape": [96], "dtype": "float32"}, {"name": "model/388/Pad/paddings", "shape": [4, 2], "dtype": "int32"}, {"name": "model/684/transpose/perm", "shape": [4], "dtype": "int32"}, {"name": "model/684/depthwise/ReadVariableOp", "shape": [3, 3, 96, 1], "dtype": "float32"}, {"name": "model/684/transpose_1/perm", "shape": [4], "dtype": "int32"}, {"name": "model/684/BiasAdd/ReadVariableOp", "shape": [96], "dtype": "float32"}, {"name": "model/687/Conv2D/ReadVariableOp", "shape": [1, 1, 96, 24], "dtype": "float32"}, {"name": "model/687/BiasAdd/ReadVariableOp", "shape": [24], "dtype": "float32"}, {"name": "model/699/Conv2D/ReadVariableOp", "shape": [1, 1, 24, 144], "dtype": "float32"}, {"name": "model/699/BiasAdd/ReadVariableOp", "shape": [144], "dtype": "float32"}, {"name": "model/425/Pad/paddings", "shape": [4, 2], "dtype": "int32"}, {"name": "model/702/transpose/perm", "shape": [4], "dtype": "int32"}, {"name": "model/702/depthwise/ReadVariableOp", "shape": [5, 5, 144, 1], "dtype": "float32"}, {"name": "model/702/transpose_1/perm", "shape": [4], "dtype": "int32"}, {"name": "model/702/BiasAdd/ReadVariableOp", "shape": [144], "dtype": "float32"}, {"name": "model/705/Conv2D/ReadVariableOp", "shape": [1, 1, 144, 40], "dtype": "float32"}, {"name": "model/705/BiasAdd/ReadVariableOp", "shape": [40], "dtype": "float32"}, {"name": "model/717/Conv2D/ReadVariableOp", "shape": [1, 1, 40, 240], "dtype": "float32"}, {"name": "model/717/BiasAdd/ReadVariableOp", "shape": [240], "dtype": "float32"}, {"name": "model/462/Pad/paddings", "shape": [4, 2], "dtype": "int32"}, {"name": "model/720/transpose/perm", "shape": [4], "dtype": "int32"}, {"name": "model/720/depthwise/ReadVariableOp", "shape": [3, 3, 240, 1], "dtype": "float32"}, {"name": "model/720/transpose_1/perm", "shape": [4], "dtype": "int32"}, {"name": "model/720/BiasAdd/ReadVariableOp", "shape": [240], "dtype": "float32"}, {"name": "model/723/Conv2D/ReadVariableOp", "shape": [1, 1, 240, 80], "dtype": "float32"}, {"name": "model/723/BiasAdd/ReadVariableOp", "shape": [80], "dtype": "float32"}, {"name": "model/744/Conv2D/ReadVariableOp", "shape": [1, 1, 80, 480], "dtype": "float32"}, {"name": "model/744/BiasAdd/ReadVariableOp", "shape": [480], "dtype": "float32"}, {"name": "model/518/Pad/paddings", "shape": [4, 2], "dtype": "int32"}, {"name": "model/747/transpose/perm", "shape": [4], "dtype": "int32"}, {"name": "model/747/depthwise/ReadVariableOp", "shape": [5, 5, 480, 1], "dtype": "float32"}, {"name": "model/747/transpose_1/perm", "shape": [4], "dtype": "int32"}, {"name": "model/747/BiasAdd/ReadVariableOp", "shape": [480], "dtype": "float32"}, {"name": "model/750/Conv2D/ReadVariableOp", "shape": [1, 1, 480, 112], "dtype": "float32"}, {"name": "model/750/BiasAdd/ReadVariableOp", "shape": [112], "dtype": "float32"}, {"name": "model/771/Conv2D/ReadVariableOp", "shape": [1, 1, 112, 672], "dtype": "float32"}, {"name": "model/771/BiasAdd/ReadVariableOp", "shape": [672], "dtype": "float32"}, {"name": "model/574/Pad/paddings", "shape": [4, 2], "dtype": "int32"}, {"name": "model/774/transpose/perm", "shape": [4], "dtype": "int32"}, {"name": "model/774/depthwise/ReadVariableOp", "shape": [5, 5, 672, 1], "dtype": "float32"}, {"name": "model/774/transpose_1/perm", "shape": [4], "dtype": "int32"}, {"name": "model/774/BiasAdd/ReadVariableOp", "shape": [672], "dtype": "float32"}, {"name": "model/777/Conv2D/ReadVariableOp", "shape": [1, 1, 672, 192], "dtype": "float32"}, {"name": "model/777/BiasAdd/ReadVariableOp", "shape": [192], "dtype": "float32"}, {"name": "model/807/Conv2D/ReadVariableOp", "shape": [1, 1, 192, 1152], "dtype": "float32"}, {"name": "model/807/BiasAdd/ReadVariableOp", "shape": [1152], "dtype": "float32"}, {"name": "model/649/Pad/paddings", "shape": [4, 2], "dtype": "int32"}, {"name": "model/810/transpose/perm", "shape": [4], "dtype": "int32"}, {"name": "model/810/depthwise/ReadVariableOp", "shape": [3, 3, 1152, 1], "dtype": "float32"}, {"name": "model/810/transpose_1/perm", "shape": [4], "dtype": "int32"}, {"name": "model/810/BiasAdd/ReadVariableOp", "shape": [1152], "dtype": "float32"}, {"name": "model/813/Conv2D/ReadVariableOp", "shape": [1, 1, 1152, 320], "dtype": "float32"}, {"name": "model/813/BiasAdd/ReadVariableOp", "shape": [320], "dtype": "float32"}, {"name": "model/816/Conv2D/ReadVariableOp", "shape": [1, 1, 320, 1280], "dtype": "float32"}, {"name": "model/816/BiasAdd/ReadVariableOp", "shape": [1280], "dtype": "float32"}, {"name": "model/667/Mean/reduction_indices", "shape": [2], "dtype": "int32"}, {"name": "model/667_EXPAND1/ExpandDims/dim", "shape": [], "dtype": "int32"}, {"name": "model/667_EXPAND2/ExpandDims/dim", "shape": [], "dtype": "int32"}, {"name": "model/668/strided_slice/stack", "shape": [1], "dtype": "int32"}, {"name": "model/668/strided_slice/stack_1", "shape": [1], "dtype": "int32"}, {"name": "model/668/strided_slice/stack_2", "shape": [1], "dtype": "int32"}, {"name": "model/668/Reshape/shape/1", "shape": [], "dtype": "int32"}, {"name": "model/669/MatMul/ReadVariableOp", "shape": [1280, 100], "dtype": "float32"}, {"name": "model/669/BiasAdd/ReadVariableOp", "shape": [100], "dtype": "float32"}, {"name": "model/670/MatMul/ReadVariableOp", "shape": [100, 4], "dtype": "float32"}, {"name": "model/670/BiasAdd/ReadVariableOp", "shape": [4], "dtype": "float32"}]}]}